Processor/models/2_layers_64hd_0.3do_model.pkl (torch, 230896 bytes, 14 tensors)

lstm.weight_ih_l0 f4 [256, 22]
0	0x3d32943b	0.043598395
1	0x3d5af266	0.053453825
2	0xbd9b30fa	-0.07577701
3	0x3d87caa8	0.066304505
4	0xbe748c03	-0.23881535
5	0xbe402bc8	-0.18766701
6	0xbf0e25d8	-0.55526495
7	0x3ca17c74	0.019712664
8	0x3d67a8d3	0.056557488
9	0xbe02f68d	-0.12789364
10	0x3dcb409a	0.09924431
11	0x3e6ef3e9	0.23335232
12	0x3e241b41	0.16026022
13	0x3de96073	0.11395349
14	0x3b3bc176	0.0028649247
15	0xbd19a9bf	-0.037515398
16	0x3d354113	0.044251513
17	0xbf041c19	-0.51605374
18	0xbdd061dc	-0.10174915
19	0x3e07f017	0.13275181
20	0xbec8e87b	-0.3923987
21	0xbd439c46	-0.047756456
22	0xbeb456ba	-0.35222417
23	0xbe60c1d1	-0.21948935
24	0xbecaf80c	-0.3964237
25	0xbeb0b6fd	-0.3451461
26	0xbdf90514	-0.12159172
27	0xbe301623	-0.17195944
28	0xbe16183d	-0.14657684
29	0xbecf37ae	-0.40472168
30	0xbe2c7d18	-0.16844594
31	0xbec7d0fe	-0.39026636
32	0xbe2bcf87	-0.16778384
33	0xbdf4c8a4	-0.11952332
34	0xbeaf5a70	-0.34248686
35	0xbea17a4f	-0.31538627
36	0x3d9fb13d	0.077974774
37	0xbe084810	-0.1330874
38	0xbea231f7	-0.31678745
39	0xbe4e9cb4	-0.20176965
40	0xbe874a00	-0.26423645
41	0xbe069d38	-0.13145912
42	0x3db2565d	0.08707879
43	0x3d8c0c5f	0.06838297
44	0x3d18443c	0.03717445
45	0xbdbe5b9b	-0.09294816
46	0x3d1cb451	0.0382579
47	0xbc7b60eb	-0.015342931
48	0xbe7ca8a3	-0.24673705
49	0xbec249ec	-0.37947023
50	0xbe406328	-0.18787825
51	0xbdbcc2c0	-0.09216833
52	0xbe208d34	-0.15678865
53	0x3d906cc1	0.07051993
54	0xbd53f0e7	-0.051743414
55	0x3e59255c	0.21205658
56	0xbd773720	-0.060355306
57	0xbe2814b3	-0.16414146
58	0xbc8da25c	-0.017289333
59	0xbdf9d893	-0.121995114
60	0xbcb8b2be	-0.022546168
61	0xbe9dead9	-0.30843237
62	0xbcdfec4d	-0.027334357
63	0x3a749b7b	0.000933103
64	0x3f620e6e	0.8830327
65	0x3f03f258	0.5154166
66	0x3d93d327	0.072180085
67	0xbdd51c3e	-0.104057774
68	0xbde4e596	-0.111766025
69	0xbde19dcb	-0.11016425
70	0x3ee38b4c	0.44442213
71	0x3eb92f2a	0.36168796
72	0x3daa2d12	0.08309378
73	0xbe09dc4a	-0.1346294
74	0xbe1da4d9	-0.15394916
75	0xbe3d0990	-0.18460679
76	0xbe3d35a1	-0.18477489
77	0x3e4cc971	0.19998719
78	0x3f0dfdd4	0.55465436
79	0x3f2388a5	0.6388038
80	0xbdc357a2	-0.09538199
81	0xbe4a8429	-0.19776978
82	0x3bc330ec	0.0059567597
83	0xbe50b06a	-0.20379797
84	0x3d4706f4	0.048590615
85	0xbe68c9cf	-0.22733234
86	0x3e9b9266	0.3038513
87	0xbe360b06	-0.17777643
88	0xbcef1020	-0.029182494
89	0x3d7adba3	0.06124462
90	0x3d4ab140	0.049485445
91	0xbc53bb91	-0.012923137
92	0x3e2ade78	0.16686428
93	0x3e4489e4	0.19193226
94	0xbdfc994f	-0.12333929
95	0xbd132594	-0.03592451
96	0x3e1a7f02	0.15087512
97	0xbc4eb5c4	-0.0126165785
98	0x3c9bfb68	0.019040778
99	0xbf3c19b6	-0.7347673
100	0xbe07637a	-0.13221541
101	0x3dee2a97	0.11629217
102	0xbe32d33a	-0.17463389
103	0xbdc3aa13	-0.095539235
104	0x3d88d668	0.0668152
105	0xbd902b62	-0.070395246
106	0xbda1fdce	-0.079097375
107	0xbef4816c	-0.4775499
108	0x3ebc1d91	0.36741307
109	0x3f1a6df9	0.60324055
110	0x3c1e55b3	0.009663987
111	0xbdb3751c	-0.08762571
112	0xbd95d589	-0.07316119
113	0xbe66dddd	-0.22545572
114	0xbe478b0e	-0.19486639
115	0xbe299d87	-0.16563998
116	0x3dbfc41f	0.09363579
117	0xbe6c444f	-0.23072933
118	0xbe304b20	-0.17216158
119	0xbe55dc17	-0.20884739
120	0xbe0fe9fe	-0.14054105
121	0x3e0cf2ad	0.13764448
122	0x3dd80c92	0.105492726
123	0xbc60a31d	-0.013710764
124	0x3da36443	0.07978108
125	0xbe361700	-0.17782211
126	0xbe53dc44	-0.20689493
127	0xbe3a60d7	-0.18201004
128	0xbc470ac9	-0.0121485675
129	0x3da5be7b	0.08092972
130	0xbe9b7082	-0.30359274
131	0xbe36f425	-0.17866571
132	0xbdfe1214	-0.12405792
133	0x3d902edc	0.07040188
134	0xbd52a0c4	-0.05142285
135	0xbd7e844a	-0.06213788
136	0xbd3d3dbe	-0.04620146
137	0xbd871221	-0.06595255
138	0xbe01e913	-0.12686567
139	0xbc8ee222	-0.017441813
140	0x3d8ea45d	0.069649436
141	0xbda999ed	-0.08281312
142	0x3dffb3f8	0.12485498
143	0xbde58ad1	-0.11208118
144	0xbdfb9dc9	-0.122859545
145	0xbd8aecfc	-0.067834824
146	0xbe148bfb	-0.14506523
147	0x3da5e3d6	0.08100097
148	0x3e317274	0.17328817
149	0xbe849595	-0.25895372
150	0xbbbc3d85	-0.0057446384
151	0x3e37c968	0.17947924
152	0x3f129425	0.572573
153	0xbe1fd6b0	-0.1560924
154	0x3de94dc8	0.11391789
155	0xbdbc54f4	-0.09195891
156	0x3d87c8c5	0.066300906
157	0x3d420908	0.047371894
158	0x3d4e157b	0.050313454
159	0xbd6ac0a5	-0.057312626
160	0x3dd616e2	0.10453583
161	0x3c640981	0.0139182815
162	0x3c26dfa8	0.01018516
163	0xbdee950c	-0.11649522
164	0x3d421c05	0.047390003
165	0xbe20632f	-0.15662836
166	0xbe5909d3	-0.21195154
167	0xbc96f5e9	-0.018427806
168	0xbe7cbccc	-0.24681395
169	0xbdbb0627	-0.09132033
170	0xbd5bfc07	-0.05370715
171	0xbe2c065e	-0.16799304
172	0x3d9aead6	0.07564323
173	0x3c8bab5e	0.017049488
174	0x3dbf4379	0.09339041
175	0xbf2e02cf	-0.67973036
176	0xbe2b23e6	-0.16712913
177	0xbd145724	-0.036215916
178	0x3c70f40a	0.014706621
179	0xbe4ebb3c	-0.20188612
180	0x3e186d52	0.14885452
181	0x3e3fbaa9	0.18723549
182	0xbca807ba	-0.020511497
183	0xbe03452d	-0.12819357
184	0x3b77326c	0.0037719263
185	0xbc2ded37	-0.010615638
186	0xbd64e627	-0.055883553
187	0xbe920c8b	-0.28525195
188	0x3d0b2fc6	0.033981107
189	0x3e8b60b6	0.27222222
190	0xbe682bd8	-0.22672975
191	0xbdd9d73a	-0.10636754
192	0xbb23e979	-0.0025010987
193	0x3e0b12d2	0.13581398
194	0xbd8da085	-0.06915382
195	0x3e91d356	0.2848155
196	0xbed41745	-0.41424003
197	0x3e945c4e	0.28976673
198	0xbd867af2	-0.06566419
199	0xbd75be21	-0.059995774
200	0xbe4a30df	-0.19745205
201	0xbe083a4c	-0.13303488
202	0x3ef58c31	0.4795852
203	0x3ed6fda9	0.41990402
204	0x3e79fca4	0.24412781
205	0xbe4149b6	-0.18875775
206	0xbe4dd331	-0.20100094
207	0xbe96c3d5	-0.29446283
208	0xbe60bd20	-0.21947145
209	0x3ddb4c43	0.10707905
210	0x3e946c24	0.28988755
211	0x3e318b23	0.17338233
212	0xbe7fc721	-0.24978305
213	0xbe899b8b	-0.26876482
214	0xbe41c9c1	-0.1892462
215	0x3ed2ff51	0.41210416
216	0xbddd865b	-0.10816642
217	0xbf05cec9	-0.52268654
218	0xbe7517f0	-0.23934913
219	0xbeee562b	-0.46550116
220	0xbd5b3165	-0.053513903
221	0x3dec4ed0	0.1153847
222	0xbd0ac5f4	-0.03388019
223	0xbb5b7f1b	-0.0033492509
224	0xbf319fe1	-0.6938458
225	0xbefffcd7	-0.4999759
226	0xbd4537eb	-0.04814903
227	0x3d90c65e	0.070690855
228	0xbd841540	-0.064493656
229	0xbddfbce1	-0.10924698
230	0xbdb2d859	-0.08732671
231	0xbe099580	-0.13435936
232	0x3e571dd0	0.21007466
233	0x3e664faf	0.22491334
234	0x3e02e9e9	0.12784542
235	0x3d5cee5d	0.05393826
236	0x3b95131e	0.004549398
237	0xbdc765bf	-0.097362034
238	0xbdb29172	-0.08719148
239	0xbe0381c2	-0.12842467
240	0xbe3082f8	-0.1723746
241	0xbe9e7af0	-0.3095317
242	0x3c4bf539	0.012448602
243	0xbd227f1b	-0.039672
244	0x3c7b4b1f	0.0153377345
245	0xbd56508f	-0.05232292
246	0xbe7a0b51	-0.2441838
247	0xbe026fe5	-0.12737997
248	0x3eaf9d13	0.34299526
249	0x3df90535	0.12159196
250	0xbb91e64c	-0.0044525024
251	0xbd3ed26b	-0.04658739
252	0xbcc46598	-0.023974225
253	0xbe1064c0	-0.14100933
254	0xbdeba56b	-0.1150616
255	0xbe832a6b	-0.256183

lstm.weight_hh_l0 f4 [256, 64]
0	0xbdc5663b	-0.096386395
1	0xbd1977a2	-0.037467606
2	0xbc4dce3d	-0.012561378
3	0x3e8a258c	0.2698177
4	0xbe1137b6	-0.14181408
5	0x3f24f152	0.64430726
6	0xbee17ee1	-0.44042113
7	0x3d88af12	0.06674017
8	0x3e77e76b	0.24209373
9	0xbb4be4d0	-0.0031111725
10	0xbe0faa43	-0.14029793
11	0x3e1e4794	0.15456992
12	0xbecc0905	-0.3985063
13	0xbd4bc883	-0.04975177
14	0x3edec5cd	0.43510285
15	0x3ecbe4af	0.3982291
16	0x3e623fe8	0.22094691
17	0x3e3c0168	0.18359911
18	0xbe3acade	-0.1824145
19	0x3ea08a5f	0.3135557
20	0x3e125464	0.14290005
21	0xbe54c9ba	-0.20780078
22	0x3ec55811	0.38543752
23	0xbe001430	-0.12507701
24	0x3e2b1ba1	0.16709758
25	0x3f20622c	0.626498
26	0x3cfe0f47	0.031013144
27	0x3e7ec6d4	0.24880534
28	0xbec1499a	-0.37751466
29	0xbdb9dc33	-0.09075203
30	0x3e6cfc79	0.23143186
31	0xbdd976b8	-0.10618347
32	0xbea65b43	-0.32491502
33	0x3caa523e	0.02079117
34	0x3e40a484	0.18812758
35	0x3d8935f3	0.06699743
36	0xbd55da2f	-0.05221003
37	0xbde4c6c4	-0.11170724
38	0xbd7035bc	-0.058644995
39	0xbe2c6a04	-0.16837317
40	0x3e4ddfd3	0.20104913
41	0x3eaaef27	0.33385584
42	0x3ce24a0a	0.027623195
43	0xbf18681c	-0.5953386
44	0x3d973661	0.07383419
45	0xbc850f28	-0.016242579
46	0xbe2a3d24	-0.16624886
47	0x3d9935c8	0.07480961
48	0xbdab5b98	-0.083670795
49	0xbf0e5a96	-0.55606973
50	0xbebd713c	-0.37000453
51	0x3e3790c6	0.1792632
52	0xbd941a63	-0.07231595
53	0xbd5e6617	-0.05429658
54	0x3c3536a5	0.011060392
55	0xbe208931	-0.15677334
56	0x3c97dbe5	0.018537471
57	0x3d4200e1	0.04736412
58	0xbd71a2a1	-0.058992986
59	0xbe0f7604	-0.14009863
60	0xbdb76d37	-0.08956378
61	0xbe726016	-0.23669466
62	0xbe75f0d7	-0.24017654
63	0xbd69c802	-0.057075508
64	0x3b088b4b	0.0020834978
65	0x3e60be5f	0.21947621
66	0x3f4a9f78	0.7914958
67	0x3e0ce148	0.13757813
68	0xbec831b3	-0.39100417
69	0x3e70b97d	0.23508258
70	0x3e646eca	0.22307888
71	0x3e0787d7	0.13235413
72	0xbec4db1d	-0.3844842
73	0xbf241e83	-0.6410906
74	0xbe5e5258	-0.21711099
75	0xbd01c318	-0.031680197
76	0xbeed3516	-0.46329564
77	0x3e05f761	0.13082649
78	0x3e3519e0	0.17685652
79	0x3d9ba7af	0.076003425
80	0x3d8d4e2b	0.06899675
81	0xbe4c5c50	-0.1995709
82	0x3e99a591	0.3000913
83	0x3d6d36d3	0.057913613
84	0x3e448792	0.19192341
85	0xbe036a86	-0.12833604
86	0x3eda5a64	0.42647088
87	0xbd87d52a	-0.06632455
88	0x3e8bdd20	0.27317142
89	0xbc832e63	-0.01601333
90	0x3e2676cb	0.16256253
91	0x3c5c0298	0.013428353
92	0xbe9a17a7	-0.3009617
93	0xbe52647f	-0.20546149
94	0x3f05cc7f	0.5226516
95	0x3e79780b	0.24362199
96	0x3ea560d6	0.32300442
97	0x3e98ff96	0.29882497
98	0x3ec6a0cf	0.38794562
99	0x3ef20d95	0.47275987
100	0x3ca37991	0.019955428
101	0xbc027002	-0.007961275
102	0x3e6e7c36	0.2328957
103	0xbd3ddeab	-0.04635493
104	0x3e6dcdf1	0.23223092
105	0xbdf989df	-0.121845
106	0x3e805cb7	0.25070736
107	0xbe9f9111	-0.31165364
108	0x3d8e2e31	0.06942404
109	0xbd8bc8da	-0.06825419
110	0xbec23e23	-0.37938032
111	0x3e2b61c8	0.1673652
112	0xbe89ca93	-0.26912364
113	0x3ea6f8b6	0.32611626
114	0xbe762097	-0.2403587
115	0xbbf65bed	-0.0075182826
116	0x3f0ab171	0.54177004
117	0x3e2434eb	0.16035812
118	0x3f4ed270	0.8078985
119	0xbed4b4a9	-0.41544083
120	0x3d4ddf6a	0.050261892
121	0x3d8679ed	0.06566224
122	0x3ea98a79	0.3311346
123	0xbcb7d8a4	-0.02244217
124	0x3e1693f5	0.14704879
125	0x3c544e5c	0.012958135
126	0xbdb4091b	-0.08790799
127	0x3d0e0d36	0.034680568
128	0x3ee33a0a	0.44380218
129	0xbc6cf832	-0.014463471
130	0x3d66d02b	0.05635087
131	0xbf0e02eb	-0.554732
132	0xbf366dbe	-0.71261203
133	0x3e38bb70	0.18040252
134	0xbe0b8f53	-0.13628893
135	0xbed054a7	-0.40689585
136	0x3e564b58	0.20927179
137	0x3eb6e7f6	0.35723847
138	0x3e290ad6	0.1650804
139	0xbd210a57	-0.0393165
140	0x3d3a2b36	0.045451365
141	0x3e1cfc33	0.15330581
142	0x3e146760	0.1449256
143	0xbe5ea8a6	-0.21744022
144	0x3df8c8e6	0.12147693
145	0x3e1b3cdd	0.15159936
146	0x3ecacd88	0.39609933
147	0xbedadf1e	-0.4274835
148	0xbdb20cd9	-0.08693857
149	0xbe474a04	-0.19461828
150	0x3e68919c	0.22711796
151	0x3e6abca1	0.22923519
152	0x3e0fc718	0.14040792
153	0x3eca74cc	0.39542234
154	0x3e1e9267	0.15485536
155	0x3ee1e6f9	0.4412153
156	0xbe4fdf1f	-0.20299958
157	0xbd7b8670	-0.061407506
158	0xbdf49bb6	-0.11943762
159	0xbe067a44	-0.13132578
160	0xbe38e9f6	-0.18057999
161	0xbe4512c3	-0.19245438
162	0xbdffe16c	-0.12494168
163	0x3f077852	0.5291797
164	0x3d3d65cd	0.046239663
165	0x3eef0102	0.46680456
166	0xbdb259dd	-0.08708546
167	0x3e96c248	0.294451
168	0x3ea69a7b	0.32539734
169	0x3e02cfed	0.1277463
170	0xbd548d95	-0.051892836
171	0x3efab1e5	0.48963848
172	0x3ebc13a9	0.3673375
173	0xbee08a3c	-0.43855464
174	0x3cf8cee0	0.030372083
175	0xbeb3a14b	-0.35083994
176	0x3d762f78	0.060103863
177	0xbe0cb175	-0.1373957
178	0x3dacdc8a	0.08440502
179	0xbe2cb48e	-0.16865751
180	0x3ecb1a3b	0.3966845
181	0xbe7a7de8	-0.24462092
182	0x3d53444d	0.05157881
183	0xbe622bc8	-0.22087014
184	0x3e07a57e	0.13246724
185	0xbdf65740	-0.1202836
186	0xbe076f19	-0.13225974
187	0xbbbbebd0	-0.005734898
188	0xbd8fe78e	-0.070265874
189	0xbea7d7e4	-0.327819
190	0x3e095d8a	0.13414589
191	0x3dac0354	0.08399072
192	0x3debf03d	0.11520431
193	0x3e05fb0c	0.13084048
194	0x3e99596b	0.29951033
195	0x3dae3848	0.085068285
196	0x3f2bb794	0.67076993
197	0x3e1ff65c	0.15621322
198	0x3d3ffce3	0.04687203
199	0xbc5e40d2	-0.013565259
200	0xbe2176ad	-0.15767927
201	0x3e259ce2	0.16173127
202	0x3e36a701	0.17837144
203	0xbe468e1b	-0.19390146
204	0xbf14ccbd	-0.58124906
205	0xbd0035d9	-0.031301353
206	0xbdf2716d	-0.118380405
207	0xbe8e90d8	-0.27844882
208	0xbdf091ba	-0.11746545
209	0xbdaedd8a	-0.08538349
210	0xbe6252c2	-0.22101882
211	0xbeec6476	-0.46170396
212	0x3d41ae25	0.047285218
213	0x3da298f5	0.079393305
214	0x3e4a30b9	0.19745149
215	0xbec5e182	-0.3864861
216	0x3e88e160	0.26734447
217	0xbdee48c4	-0.11634973
218	0xbf029fe9	-0.51025254
219	0x3d8f3d09	0.069940634
220	0xbed10867	-0.40826723
221	0x3ee4cc52	0.44687134
222	0xbdd709c5	-0.1049991
223	0x3ea5a7d7	0.32354614
224	0xbcd7f97d	-0.026364082
225	0xbdf56bc9	-0.11983449
226	0x3e864e76	0.26231736
227	0xbd840cee	-0.06447779
228	0xbdffcb26	-0.12489919
229	0x3c251075	0.010074724
230	0x3d81f763	0.063460134
231	0xbe76ec17	-0.24113499
232	0xbe9fcd19	-0.31211165
233	0x3e8e45cd	0.2778763
234	0xbd4e627b	-0.050386887
235	0x3bd3e1c0	0.0064661205
236	0xbe0153db	-0.12629645
237	0x3da622b9	0.081120916
238	0x3db5d046	0.08877616
239	0x3db916af	0.0903753
240	0x3e728524	0.23683602
241	0xbdd1b046	-0.102386996
242	0xbe9b3fc9	-0.30322102
243	0x3e53f750	0.20699811
244	0xbe0a15eb	-0.13484924
245	0xbdbe0743	-0.09278729
246	0xbe952230	-0.29127645
247	0xbe94238c	-0.2893337
248	0x3eb691b5	0.3565804
249	0xbf016d9a	-0.50557864
250	0x3e3bb6cb	0.18331449
251	0xbca19518	-0.019724414
252	0xbe881b98	-0.26583552
253	0x3d84a700	0.06477165
254	0xbb98205b	-0.004642529
255	0xbea09cad	-0.31369534

lstm.bias_ih_l0 f4 [256]
0	0x3d5a38d5	0.053276855
1	0x3dac6b99	0.0841896
2	0xbde09eb7	-0.109677725
3	0x3ea7c189	0.32764843
4	0x3dcf9897	0.10136526
5	0x3ea92b36	0.3304078
6	0x3ef42d27	0.47690699
7	0x3e27c2d5	0.16382916
8	0x3db7b301	0.08969689
9	0xbdf8219b	-0.12115785
10	0x3e1df80c	0.15426654
11	0x3e1bc34b	0.15211217
12	0x3e8d2a13	0.27571163
13	0xbdd49848	-0.10380608
14	0x3d1b0564	0.037846938
15	0x3eb62025	0.355714
16	0x3edc0c53	0.42978153
17	0xbc4013c0	-0.011723459
18	0x3e71aa3d	0.23600097
19	0xbd34b309	-0.044116054
20	0x3e44ce39	0.19219293
21	0x3e8eb12f	0.27869555
22	0x3eaaed5f	0.33384225
23	0x3c38512e	0.0112498235
24	0x3ed9f2b7	0.4256799
25	0x3f339caf	0.70160955
26	0x3e552b6a	0.20817342
27	0x3e500306	0.20313653
28	0xbd4cf849	-0.05004147
29	0xbb3411a6	-0.002747634
30	0xb9532db0	-0.00020139548
31	0x3ebc4c25	0.36776844
32	0x3edc2d1f	0.43003175
33	0x3e90e683	0.28300866
34	0x3d9a5bdb	0.07537051
35	0x3e4e93dd	0.20173593
36	0x3d7878e9	0.060662184
37	0x3be5b6f0	0.0070103332
38	0xbc8345a1	-0.016024413
39	0x3e494fc7	0.19659339
40	0x3cd7f3ba	0.026361335
41	0x3eb58dd8	0.3545978
42	0x3e8a6619	0.2703102
43	0x3eaf991a	0.34296495
44	0x3e31e242	0.17371467
45	0x3eb1e8e5	0.34747997
46	0x3e383423	0.17988639
47	0x3e1b563d	0.15169616
48	0xbd32bbb9	-0.043636058
49	0x3e3bb602	0.18331149
50	0xbe53f7ec	-0.20700043
51	0x3d86e4a4	0.065865785
52	0x3e0fbc63	0.14036708
53	0x3ddfdd15	0.1093084
54	0x3e6bb4f0	0.23018241
55	0x3e674f6a	0.22588888
56	0x3e91f588	0.28507638
57	0x3e87ed9a	0.26548463
58	0xbdc9c42d	-0.09851871
59	0x3e9f83a2	0.31155115
60	0x3e664c76	0.22490105
61	0x3e1e70bc	0.15472692
62	0x3d840200	0.06445694
63	0x3e2cc444	0.16871744
64	0xbd635920	-0.055504918
65	0xbd9cbce6	-0.07653217
66	0xbe29dc8b	-0.16588037
67	0xbe00d956	-0.12582907
68	0x3dd9e253	0.10638871
69	0x3e2278df	0.15866421
70	0x3e472ca7	0.19450627
71	0xbe178afe	-0.14799115
72	0xbe24b0fe	-0.16083142
73	0xbe9b9b48	-0.30391908
74	0x3d73c8ba	0.0595176
75	0x3e46031c	0.19337124
76	0x3e0074a5	0.12544496
77	0x3c4e786b	0.012601952
78	0x3c6b8755	0.014375527
79	0xbe4ba44b	-0.19886892
80	0xbf0bb145	-0.54567367
81	0xbc9350bc	-0.017982833
82	0x3ea6f815	0.32611147
83	0xbe0997f0	-0.13436866
84	0xbc011027	-0.007877386
85	0x3e8ae59b	0.271283
86	0x3dd2b896	0.10289113
87	0xbe5a9304	-0.21345145
88	0x3e157311	0.14594676
89	0xbe25d7fd	-0.16195674
90	0xbd11213f	-0.035432097
91	0xbc233bf7	-0.009963027
92	0x3d9bf3f9	0.076148935
93	0xbe284fac	-0.16436642
94	0x3e55513d	0.20831771
95	0x3b40d4f8	0.0029423814
96	0x3e1652d5	0.14680035
97	0x3d5f3cdc	0.0545014
98	0x3e103ba8	0.14085257
99	0x3b7c744c	0.0038521467
100	0x3e263bb4	0.16233712
101	0x3d332d19	0.04374418
102	0x3e83f9f5	0.2577664
103	0x3e4b3fc3	0.19848542
104	0xbecec7da	-0.4038685
105	0x3e8d2457	0.27566788
106	0x3d3d0bb5	0.046153743
107	0x3e2de546	0.16981992
108	0x3c99580b	0.01871874
109	0xbe242d89	-0.16032995
110	0xbe239f00	-0.15978622
111	0x3decbfd1	0.115600236
112	0x3d6f0a75	0.058359582
113	0x3eb89c0e	0.3605656
114	0xbe3e39b0	-0.18576694
115	0x3ccdc715	0.025119344
116	0x3d2edcbb	0.042690974
117	0x3edfc4c5	0.4370481
118	0x3e0bb126	0.13641796
119	0xbdddd540	-0.1083169
120	0x3e1a03a8	0.15040457
121	0x3dbc159c	0.09183809
122	0xbc25972d	-0.010106844
123	0x3d837646	0.06419043
124	0xbe4a19b5	-0.19736369
125	0xbcd7ad0b	-0.02632763
126	0xbe06acb1	-0.13151814
127	0xbd1789f5	-0.0369968
128	0xbcb25f12	-0.021773849
129	0x3e368fc0	0.17828274
130	0x3e3efd55	0.18651326
131	0x3e6a9714	0.22909194
132	0x3e8957d2	0.26824814
133	0x3e4e917f	0.2017269
134	0x3e72f271	0.23725297
135	0x3daf3890	0.0855571
136	0x3c1be809	0.009515771
137	0x3cdd8ccd	0.027044678
138	0xbeb0b83c	-0.3451556
139	0x3c8870a7	0.01665528
140	0x3cc980d5	0.024597565
141	0xbe1f2ce2	-0.15544465
142	0x3b5b232d	0.0033437714
143	0x3e08bba3	0.13352828
144	0xbdc5f7ed	-0.09666429
145	0x3ded4c20	0.11586785
146	0xbe0de288	-0.13855946
147	0x3d099a70	0.03359455
148	0x3eadaaa1	0.33919242
149	0x3e04537c	0.12922472
150	0xbdc7f518	-0.09763545
151	0x3d8f0159	0.06982679
152	0x3e7036a1	0.2345834
153	0x3de9c600	0.11414719
154	0xbd917271	-0.07101906
155	0xbc2c08e6	-0.010500168
156	0x3dc44266	0.09582977
157	0x3e0f6950	0.14005017
158	0xbe5c1353	-0.21491747
159	0x3e368a3d	0.17826171
160	0x3caa3d90	0.020781308
161	0x3dd44e6f	0.103665225
162	0x3d92be67	0.071652226
163	0xbe0d20ec	-0.1378209
164	0x3e99fdde	0.30076498
165	0x3e224768	0.15847552
166	0xbe2042f9	-0.15650548
167	0xbe57b8a9	-0.21066536
168	0x3dbb5135	0.091463484
169	0xbde7a6c0	-0.11311102
170	0xbc84374f	-0.016139654
171	0xbe71fbfe	-0.23631284
172	0xbd8e0470	-0.0693444
173	0xbd8b21a9	-0.067935295
174	0x3cc652c3	0.024209386
175	0x3e3ee401	0.18641664
176	0x3c6c0761	0.014406056
177	0x3d9eec49	0.077599116
178	0x3dac4ee5	0.084134854
179	0x3e4d003e	0.20019624
180	0xbe18c695	-0.14919503
181	0x3dafb973	0.085802935
182	0xbe03c993	-0.12869863
183	0xbe22e52d	-0.15907736
184	0x3e016e0a	0.12639633
185	0x3ceac218	0.028657004
186	0x3e92d2b9	0.28676394
187	0x3e0fd8d2	0.14047554
188	0x3d6ac9b1	0.057321254
189	0xbc698f5b	-0.01425537
190	0x3dafc1e0	0.085819006
191	0xbd9cfcbc	-0.07665393
192	0x3e25efe6	0.16204795
193	0x3e3cac5d	0.18425126
194	0xbd02cf99	-0.03193626
195	0x3ea7360b	0.3265842
196	0x3d4040e7	0.046936896
197	0x3e3ca32d	0.18421622
198	0x3e90b059	0.28259543
199	0x3d7ca906	0.06168463
200	0x3e02b109	0.12762846
201	0x3e8c5471	0.27408174
202	0x3e0da9d8	0.13834321
203	0x3e397354	0.181104
204	0x3dbeb958	0.09312695
205	0x3e1b7ada	0.15183583
206	0x3e1311bc	0.14362234
207	0x3e4116c3	0.18856339
208	0x3ef2f94c	0.47455823
209	0x3de0a3d2	0.10968746
210	0x3e688923	0.22708564
211	0xbd1b1a6d	-0.037867
212	0x3ed2f4eb	0.41202483
213	0x3e3755e9	0.17903866
214	0x3e2916fe	0.16512677
215	0x3e9d6c85	0.30746856
216	0x3e4535ca	0.192588
217	0x3eb5bf20	0.3549738
218	0x3dcb89c3	0.09938385
219	0x3e611790	0.21981645
220	0x3e269a27	0.16269742
221	0x3e0ac4da	0.13551655
222	0x3e1d58a7	0.1536585
223	0x3ec50f8a	0.38488418
224	0x3f005d98	0.5014281
225	0x3ebfbb1d	0.37447444
226	0x3e3a583a	0.18197718
227	0x3e822620	0.25419712
228	0x3e473a3e	0.19455811
229	0x3e2b4632	0.16725996
230	0x3e8f0303	0.27931985
231	0x3e654208	0.2238847
232	0x3e4423a4	0.19154221
233	0x3e8af6e1	0.2714148
234	0x3ecc9796	0.399594
235	0x3e3de377	0.18543802
236	0x3ea4a6de	0.3215856
237	0x3eb74421	0.35794166
238	0x3d88fb88	0.06688601
239	0x3e9c33fe	0.30508417
240	0x3e0c3560	0.13692236
241	0x3de6d90a	0.11271866
242	0x3df3751d	0.11887572
243	0xbd8e4d62	-0.06948353
244	0x3e07bfbc	0.13256735
245	0x3ee1a49c	0.440709
246	0x3e24b3f3	0.1608427
247	0x3e1aae9f	0.15105675
248	0x3e8118a8	0.25214124
249	0x3ed1c3a8	0.40969586
250	0x3e607fda	0.21923772
251	0x3e841800	0.2579956
252	0x3c077941	0.008268655
253	0x3ea9a5d5	0.33134332
254	0x3dff1777	0.124556474
255	0x3e14cad5	0.145305

lstm.bias_hh_l0 f4 [256]
0	0x3df83b76	0.12120716
1	0x3dff182a	0.12455781
2	0xbddc9423	-0.10770442
3	0x3e5c08e3	0.21487765
4	0x3da8f1eb	0.08249267
5	0x3e841dbe	0.2580394
6	0x3ea9b669	0.3314698
7	0x3db05f17	0.08611887
8	0xbce281b7	-0.027649743
9	0xbe0d7d12	-0.13817242
10	0xbd351ac9	-0.044214997
11	0x3e845ab1	0.25850442
12	0x3de7efa5	0.113250054
13	0xbdcd953e	-0.10038231
14	0x3cb3679c	0.02189999
15	0x3eb51bcb	0.35372767
16	0x3ea25c1f	0.31710908
17	0x3d1b0387	0.03784516
18	0x3ea08d5e	0.31357855
19	0x3d3e997d	0.046533097
20	0x3c451914	0.012029905
21	0x3e8e875f	0.27837655
22	0x3e912091	0.2834516
23	0x3dee950e	0.11649524
24	0x3ec86c9d	0.39145365
25	0x3f05a6d3	0.5220768
26	0x3e45910e	0.19293615
27	0x3ea6c59d	0.32572642
28	0x3db30227	0.08740645
29	0x3cef42ff	0.02920675
30	0x3af4a489	0.0018664758
31	0x3e7fb18a	0.2497007
32	0x3e854ee1	0.26036742
33	0x3eb6223b	0.3557299
34	0x3e31fbe7	0.1738125
35	0x3df2b768	0.11851388
36	0x3a2cb054	0.0006587554
37	0xbd377391	-0.044787947
38	0x3d17ef41	0.037093405
39	0x3e0dd941	0.13852407
40	0xbd78724d	-0.06065588
41	0x3e9e0e9e	0.30870527
42	0x3e8d4f96	0.27599782
43	0x3ea6cb4c	0.32576978
44	0x3df85217	0.121250324
45	0x3e85b337	0.26113293
46	0x3d19ab1b	0.037516695
47	0x3e7ea5fb	0.24868004
48	0xbc0e0b65	-0.008669709
49	0x3e884101	0.26612094
50	0xbe91ffc9	-0.2851546
51	0x3d9bb57e	0.07602976
52	0x3e48c76f	0.19607328
53	0x3dc13217	0.09433382
54	0xbbd291d3	-0.006426075
55	0x3e8b1f8d	0.2717251
56	0x3e1c9655	0.15291722
57	0x3ea2194c	0.31659925
58	0x3cea224b	0.028580805
59	0x3e93ba9c	0.2885331
60	0x3e8dcf02	0.27696997
61	0x3e2cdd24	0.16881233
62	0x3d5d1fe6	0.0539855
63	0x3dbdc74f	0.09266531
64	0x3cc13bf4	0.023588158
65	0xbd3ad567	-0.045613673
66	0xbe3cf6c1	-0.18453504
67	0xbd1b4748	-0.037909776
68	0x3e3192cb	0.17341153
69	0x3e2c1a53	0.16806917
70	0x3e9b7c90	0.3036847
71	0x3c50930b	0.01273037
72	0xbdc1038c	-0.09424505
73	0xbe0cda7e	-0.13755223
74	0x3d6be840	0.057594538
75	0x3e67b976	0.22629341
76	0x3e6eee43	0.23333077
77	0x3db61445	0.08890585
78	0x3cb90130	0.022583574
79	0xbea716d5	-0.32634607
80	0xbec5d05e	-0.38635534
81	0x3e03da6f	0.12876295
82	0x3e32cdc9	0.17461313
83	0xbe72f490	-0.23726106
84	0xbe0e6b89	-0.13908209
85	0x3e73257e	0.23744771
86	0x3e92db95	0.28683153
87	0xbe1f8eea	-0.15581861
88	0x3d96a11f	0.0735495
89	0xbe9f949b	-0.31168064
90	0x3d8b6d29	0.0680793
91	0xbe1c9fb8	-0.15295303
92	0xbae3e188	-0.0017385939
93	0xbdd67f8d	-0.10473547
94	0x3e2022f9	0.15638341
95	0x3e6c3556	0.23067221
96	0x3e7ff451	0.24995543
97	0x3e0611e7	0.13092767
98	0x3d12d6db	0.035849433
99	0x3d418bc0	0.047252417
100	0x3cc4e761	0.024036111
101	0xbc5215c0	-0.012822568
102	0x3e9071bb	0.2821177
103	0x3db162a0	0.08661389
104	0xbeab8c84	-0.33505642
105	0x3e9ddd49	0.3083289
106	0x3d8a3fd5	0.06750456
107	0x3e205a64	0.15659481
108	0x3d163061	0.03666723
109	0xbe08144f	-0.13288997
110	0xbe025394	-0.12727195
111	0x3c552a90	0.013010636
112	0x3e1c0267	0.15235291
113	0x3e554eb0	0.20830798
114	0xbe6c6b00	-0.23087692
115	0xbd52563d	-0.051351774
116	0x3dd7a021	0.10528589
117	0x3e8bbea5	0.27293888
118	0x3e3cd572	0.18440798
119	0x3d712d60	0.058881164
120	0x3e85f39f	0.2616243
121	0x3d5e201c	0.05422984
122	0x3dd3f4c9	0.103494234
123	0x3e0c41cb	0.13696973
124	0xbdbccc0e	-0.09218608
125	0xbda54d55	-0.080713905
126	0x3c17c455	0.009263118
127	0xbd84da0b	-0.06486901
128	0xbd594b74	-0.053050473
129	0x3e8178f3	0.2528759
130	0x3e545847	0.207368
131	0x3e8e6090	0.27808046
132	0x3defa2eb	0.11700996
133	0x3e970aaf	0.29500338
134	0x3db41ab8	0.08794159
135	0x3e5dfe21	0.21678974
136	0x3db68ce6	0.08913593
137	0xbc7d9704	-0.015477899
138	0xbe8fc5b2	-0.28080517
139	0x3e478246	0.19483289
140	0x3d9957a7	0.074874215
141	0xbe1ca270	-0.1529634
142	0xbd75cdb9	-0.060010646
143	0x3e111d55	0.14171346
144	0xbc47443d	-0.012162265
145	0xbcd4b096	-0.025963109
146	0xbe2bc00c	-0.16772479
147	0x3dffc5b8	0.12488884
148	0x3e65f715	0.22457536
149	0x3cf2925a	0.029610801
150	0x3d808ede	0.0627725
151	0x3e1c960b	0.15291612
152	0x3d889246	0.066685244
153	0x3d72ef86	0.05931046
154	0xbdc61735	-0.09672395
155	0x3d9ae158	0.07562512
156	0xbce28f3a	-0.027656186
157	0xbd3808a7	-0.044930127
158	0xbe0adbbd	-0.13560386
159	0x3dad00b2	0.08447398
160	0x3ddde65f	0.108349554
161	0x39af9dcd	0.00033496172
162	0x3e3abba2	0.18235639
163	0xbdd6d9c8	-0.10490757
164	0x3e9bb5ae	0.30412048
165	0x3da1db26	0.07903127
166	0xbc7cd7ca	-0.0154323075
167	0xbe2bc285	-0.16773422
168	0x3e6c5ab0	0.2308147
169	0xbe125346	-0.14289579
170	0x3e223703	0.15841298
171	0xbe77f910	-0.24216104
172	0x3c8392a5	0.016061136
173	0xbd969525	-0.07352666
174	0xbd09bf67	-0.0336298
175	0x3e517cc9	0.20457758
176	0x3e2a353c	0.1662187
177	0x3c7f3f46	0.01557905
178	0x3d7f9a06	0.062402748
179	0x3e6e49ba	0.23270312
180	0x3c529019	0.012851738
181	0x3e1a52b2	0.15070608
182	0xbdde742d	-0.108620025
183	0xbd1ffae9	-0.039057646
184	0x3cced20a	0.025246639
185	0x3e22034b	0.15821569
186	0x3e539fba	0.206664
187	0x3e1bdae4	0.15220219
188	0x3e3e3757	0.18575798
189	0xbc3bb115	-0.011455794
190	0xbd95fb19	-0.07323284
191	0xbcdcc536	-0.026949506
192	0x3bb793d7	0.0056023407
193	0x3e54d089	0.20782675
194	0xbc92a7d0	-0.017902285
195	0x3ea98555	0.33109537
196	0x3e6ce894	0.23135597
197	0x3eafca59	0.34334067
198	0x3ebc08fb	0.36725602
199	0x3d456fcc	0.04820232
200	0x3d09e618	0.0336667
201	0x3e3c4319	0.1838497
202	0xbb8fcca7	-0.00438841
203	0xbc263712	-0.010144966
204	0x3e042dc2	0.1290808
205	0x3e5e85c2	0.21730712
206	0x3df77058	0.12081975
207	0x3ead4720	0.33843327
208	0x3e9f3776	0.31097
209	0xbc09b8c8	-0.008405872
210	0x3edaceca	0.42735893
211	0x3c6f75e1	0.014615507
212	0x3ed0e01f	0.4079599
213	0x3ebc1fa1	0.3674288
214	0x3d8b3750	0.067976594
215	0x3e02822c	0.12744969
216	0x3e8815c8	0.26579118
217	0x3ecca2fc	0.39968097
218	0x3e7d3eaa	0.24730936
219	0x3e207e20	0.15673113
220	0x3cee92a6	0.029122662
221	0x3e5552cc	0.20832366
222	0x3e85dc1f	0.26144502
223	0x3e9fe9a8	0.31232953
224	0x3eb9a02c	0.36255014
225	0x3ea982b5	0.33107534
226	0x3dee5cdb	0.116388045
227	0x3e9dee1f	0.30845734
228	0x3e0d420e	0.13794729
229	0x3e4c4ec6	0.19951925
230	0x3ec3b8f2	0.3822704
231	0x3e2b092c	0.16702718
232	0x3e427486	0.18989763
233	0x3e6c7928	0.23093092
234	0x3ebf4066	0.3735382
235	0x3e456797	0.19277798
236	0x3df9a23c	0.12189147
237	0x3e9ffcc7	0.3124754
238	0x3e6a306d	0.22870035
239	0x3e9f40a2	0.31103998
240	0x3d787abb	0.06066392
241	0x3e8129aa	0.252271
242	0x3b8c95ad	0.0042903037
243	0xbcc517c2	-0.02405918
244	0x3d930a8b	0.07179745
245	0x3eb20bba	0.34774572
246	0x3d3c900a	0.046035804
247	0x3ea146c9	0.31499317
248	0x3e7ac2e2	0.24488404
249	0x3e653fa2	0.22387555
250	0x3e0e3080	0.13885689
251	0x3e8ce682	0.27519614
252	0x3e1b498b	0.15164773
253	0x3e81df13	0.25365505
254	0x3d38fb9d	0.045161832
255	0x3dc329aa	0.09529431

lstm.weight_ih_l1 f4 [256, 64]
0	0xbe87c91c	-0.26520622
1	0xbe56e26a	-0.20984808
2	0xbecfa224	-0.4055339
3	0xbc221d2c	-0.00989465
4	0x3ecb4583	0.3970147
5	0x3d4adcf1	0.049527112
6	0xbc72e21e	-0.014824418
7	0x3e806282	0.25075155
8	0x3d0cf3bb	0.034412127
9	0x3d44b058	0.048019737
10	0x3e40d716	0.18832049
11	0x3c96daa7	0.018414808
12	0x3e0c2292	0.13685063
13	0x3e8278e8	0.2548287
14	0xbe77ca6b	-0.2419831
15	0xbed66cff	-0.41880032
16	0xbd5fc791	-0.05463368
17	0xbdd8eafd	-0.105916955
18	0xbf0bcd79	-0.546104
19	0xbcc7b19e	-0.024376687
20	0xbcc4a735	-0.024005512
21	0x3e4e17ed	0.20126314
22	0x3e8aa69c	0.27080238
23	0x3e0fc535	0.14040072
24	0x36fe6aac	7.582208e-06
25	0xbeadcb07	-0.3394396
26	0xbce2c23b	-0.027680507
27	0xbec6bbe2	-0.38815218
28	0xbda31414	-0.07962814
29	0x3e5ae0c5	0.21374805
30	0xbde904e2	-0.113778844
31	0x3ed984f1	0.4248424
32	0xbde5c692	-0.11219515
33	0x3ef4cd81	0.47813037
34	0x3e0a3037	0.13494955
35	0x3dc2d933	0.09514084
36	0x3cae3df9	0.021269785
37	0x3dc6ec52	0.09713043
38	0xbef9b97f	-0.48774335
39	0xbe931dfb	-0.2873381
40	0xbe548ff6	-0.20758042
41	0x3e7f145e	0.24910113
42	0xbe56b04f	-0.20965694
43	0xbdd9d839	-0.10636944
44	0x3e74b0f7	0.23895632
45	0x3cc8e9bd	0.024525518
46	0xbe6ca7b0	-0.23110843
47	0xbce01954	-0.027355827
48	0xbd3440e8	-0.044007212
49	0x3c100d53	0.008792239
50	0xbeb8194a	-0.35956794
51	0x3d3fdc4c	0.04684095
52	0x3e5ac770	0.21365142
53	0x3e794491	0.24342562
54	0xbe117fb7	-0.14208876
55	0x3e0ef6d0	0.13961339
56	0x3e412849	0.18863024
57	0xbec136f3	-0.37737235
58	0xbe2c37e7	-0.168182
59	0x3eecedf8	0.46275306
60	0xbe5736da	-0.21017018
61	0xbccf6bf6	-0.025320034
62	0xbe46e3d7	-0.19422852
63	0x3ef8d630	0.48600912
64	0xbe9c4a09	-0.30525234
65	0xbb91f252	-0.0044539357
66	0x3e8e9285	0.2784616
67	0xbe73bb39	-0.23801889
68	0xbcfe3b4b	-0.031034132
69	0xbdf67f5a	-0.12036009
70	0x3da86134	0.08221665
71	0xbe7378ce	-0.23776552
72	0xbbdc1de2	-0.0067174295
73	0x3e8ffdf3	0.28123435
74	0x3e360599	0.17775573
75	0xbe40b9d7	-0.18820892
76	0xbe0df51c	-0.13863033
77	0xbe5b27de	-0.21401927
78	0x3aa4e48e	0.0012580322
79	0xbdef2905	-0.11677746
80	0xbd95320b	-0.072849356
81	0xbe0c4b18	-0.13700521
82	0x3e7e5a3e	0.24839112
83	0x3d80ebf8	0.062950075
84	0xbe7a0a56	-0.24418005
85	0x3d0b309d	0.033981908
86	0xbe876267	-0.26442263
87	0x3e1b329e	0.15156028
88	0xbe34af65	-0.17645033
89	0x3d550149	0.05200318
90	0x3e42bbd9	0.1901697
91	0x3e173d37	0.14769445
92	0xbd33f15e	-0.043931358
93	0x3e18278e	0.14858839
94	0xbeb19182	-0.34681326
95	0xbd0d196c	-0.034448072
96	0x3d8b4b07	0.0680142
97	0x3e28dde1	0.1649089
98	0xbe6c2085	-0.2305928
99	0x3ec87e96	0.39159077
100	0x3e8a4e65	0.27012935
101	0x3cd4f2db	0.025994709
102	0xbde21f38	-0.11041111
103	0x3db7b657	0.089703254
104	0xbe890b3c	-0.26766384
105	0x3dbc4e38	0.091946065
106	0xbc8b582c	-0.017009817
107	0xbdf671ce	-0.12033425
108	0xbe9da054	-0.30786383
109	0x3e504463	0.20338587
110	0xbe33441c	-0.1750645
111	0x3e8816e2	0.26579958
112	0xbccea445	-0.025224814
113	0xbd831b4d	-0.064016916
114	0x3d3f18d0	0.046654522
115	0xbeddea0c	-0.43342626
116	0x3e3d2b99	0.18473662
117	0xbe0aa987	-0.13541232
118	0xbaebb45f	-0.0017982832
119	0x3de99b6a	0.11406596
120	0x3ef07c8b	0.4697002
121	0xbb2a8326	-0.0026018112
122	0x3cad1e06	0.02113248
123	0x3e5017ee	0.20321628
124	0xbe7bc287	-0.24585925
125	0x3f14e6c6	0.5816463
126	0x3e04267b	0.12905304
127	0x3e940c37	0.2891557
128	0xbf096fbd	-0.53686124
129	0x3ae430f0	0.0017409604
130	0xbdc84060	-0.097779036
131	0x3de849fa	0.11342235
132	0x3e5062ac	0.2035014
133	0xbbcfb369	-0.006338526
134	0xbe9af945	-0.30268303
135	0xbd875242	-0.06607486
136	0x3e2dd400	0.16975403
137	0xbe30d55b	-0.17268889
138	0x3dafd2f3	0.08585157
139	0xbb43b950	-0.0029865094
140	0xbeb752f2	-0.3580547
141	0xbd72fb12	-0.05932147
142	0x3d452671	0.048132364
143	0x3d1691d0	0.03676015
144	0xbd81f710	-0.063459516
145	0x3ccb2a2b	0.02480038
146	0xbe420035	-0.18945391
147	0xbd03b6ff	-0.03215694
148	0x3e1ba3db	0.15199225
149	0x3b806999	0.003918838
150	0x3e408b4c	0.18803138
151	0x3e29bfd1	0.16577078
152	0xbeecad3a	-0.4622591
153	0x3e830b49	0.25594547
154	0x3df8d924	0.12150791
155	0xbdbd3a19	-0.09239597
156	0xbe76a2cf	-0.24085544
157	0x3e2b24a1	0.16713192
158	0xbe7d2ed8	-0.247249
159	0x3e45a77b	0.1930217
160	0xbeb3d578	-0.351238
161	0xbe3359d2	-0.17514732
162	0x3dc46bab	0.095908485
163	0x3d0a0092	0.03369195
164	0xbdcfc64a	-0.101452425
165	0xbe4f7948	-0.20261109
166	0xbd9ae1ea	-0.07562621
167	0xbd40f4b4	-0.047108367
168	0x3e3c5bea	0.18394437
169	0x3daf6497	0.08564108
170	0x3dc2d8dd	0.0951402
171	0xbe762c55	-0.24040349
172	0xbea5e62c	-0.3240217
173	0xbe36c822	-0.17849782
174	0xbe62159e	-0.22078559
175	0x3d39ec47	0.045391347
176	0xbdd0ed85	-0.10201553
177	0xbdf0da91	-0.11760438
178	0x3e7d1033	0.24713211
179	0xbdce450f	-0.10071766
180	0x3e65758e	0.22408125
181	0x3e7a3ce4	0.2443729
182	0xbd3b19fd	-0.04567908
183	0x3db26324	0.08710316
184	0xbe3e9b68	-0.1861397
185	0x3caa467e	0.020785566
186	0x3e5555a6	0.20833454
187	0x3e8f4e14	0.27989256
188	0xbdfc29ec	-0.123126835
189	0x3e2bebd3	0.16789179
190	0x3e2d3ff8	0.16918933
191	0x3e3babd4	0.18327266
192	0xbd81294b	-0.06306704
193	0x3e5bbaf5	0.21458037
194	0x3eac6679	0.3367193
195	0xbbb9330f	-0.0056518386
196	0x3e88e661	0.26738265
197	0xbebba320	-0.36647892
198	0xbd17f5cc	-0.037099645
199	0x3e16b998	0.14719236
200	0xbd5f6aff	-0.0545454
201	0x3e87ea4d	0.26545945
202	0xbdcccdf3	-0.10000219
203	0x3bd1e214	0.0064051244
204	0xbe5f54ba	-0.21809664
205	0x3e5f31ad	0.21796294
206	0x3e5f9c3b	0.21836941
207	0x3ed2986a	0.41131908
208	0xbd90783f	-0.07054185
209	0xbcea7b8e	-0.028623369
210	0x3e3d2634	0.18471605
211	0x3e49fcc6	0.19725332
212	0x3db52cec	0.08846459
213	0x3e04bd90	0.12962937
214	0x3e06cab0	0.13163257
215	0x3d871ffa	0.06597896
216	0x3d0c22b6	0.03421279
217	0x3e8c29f9	0.27375773
218	0x3e63d9f3	0.2225111
219	0x3e9e6539	0.30936602
220	0x3e5a428e	0.21314451
221	0x3d99a5f2	0.07502355
222	0x3d9788db	0.0739915
223	0x3b0376d7	0.0020059848
224	0xbc1dc5e3	-0.009629699
225	0xbe925adf	-0.28584954
226	0xbe0e0945	-0.13870724
227	0xbe0a1e0d	-0.13488026
228	0xbe3475cd	-0.17623062
229	0xbd35aa35	-0.044351775
230	0x3d7edec3	0.06222416
231	0x3db7721e	0.08957313
232	0x3c386a3c	0.011255797
233	0xbe374e94	-0.17901069
234	0xbe4970a1	-0.19671871
235	0x3beae50a	0.007168417
236	0xbec752c5	-0.38930336
237	0xbe92311b	-0.2855309
238	0xbe931d41	-0.28733256
239	0xbd638b47	-0.055552747
240	0xbe169e89	-0.14708914
241	0x3debd5ed	0.115154125
242	0xbd6878d6	-0.056755863
243	0x3e1112c2	0.14167312
244	0x3ccfd5e3	0.025370544
245	0xbdaef7c3	-0.085433505
246	0x3ad0538e	0.0015894042
247	0x3e459116	0.19293627
248	0xbc3fbebb	-0.0117031885
249	0xbdc280e3	-0.094972394
250	0xbdfd2343	-0.12360241
251	0xbe2c90b1	-0.1685207
252	0x3e1fda61	0.15610649
253	0xbcb25de4	-0.021773286
254	0x3e731fec	0.23742646
255	0xbc94761c	-0.018122725

lstm.weight_hh_l1 f4 [256, 64]
0	0xbe9d9ff8	-0.3078611
1	0x3dd65cce	0.1046692
2	0xbe0c7a62	-0.1371856
3	0x3e993f54	0.29931128
4	0xbdce5f00	-0.100767136
5	0x3e2e8da7	0.17046224
6	0x3e7348e7	0.23758279
7	0x3e039473	0.12849598
8	0xbe51ca62	-0.20487359
9	0xba702420	-0.00091606565
10	0x3ecd7dba	0.40134984
11	0xbd9e4af5	-0.07729141
12	0xbe1da21e	-0.15393874
13	0xbe8915c0	-0.26774406
14	0xbef36039	-0.4753435
15	0xbdbd368b	-0.09238919
16	0x3e50f5e0	0.20406294
17	0xbdc1e2cb	-0.094670855
18	0xbe8c7d90	-0.27439547
19	0x3dc383a3	0.09546592
20	0x3e113047	0.14178573
21	0xbda32e1d	-0.0796778
22	0xbddab1ac	-0.106784195
23	0x3dead327	0.11466055
24	0x3e7106d0	0.23537755
25	0xbe5ab0ad	-0.21356459
26	0xbde72ffe	-0.11288451
27	0xbd197bd5	-0.03747161
28	0xbe1c9c16	-0.15293917
29	0xbda18c36	-0.07888071
30	0x3eb31853	0.34979495
31	0xbe44c65a	-0.1921629
32	0xbdab79f9	-0.08372874
33	0x3d84356a	0.064555004
34	0xbdc49568	-0.095988095
35	0xbe32d1be	-0.17462823
36	0x3da8538b	0.082190596
37	0x3e7d5fe1	0.24743606
38	0xbe44f29b	-0.19233172
39	0xbe6b71ff	-0.22992705
40	0xbd553288	-0.052050143
41	0x3e495368	0.19660723
42	0xbdd5af38	-0.10433811
43	0x3e9eab0b	0.3098987
44	0x3e2e4cc7	0.17021476
45	0x3ce4cb16	0.02792887
46	0xbca0a007	-0.019607557
47	0x3a2ada8b	0.0006517551
48	0x3e28bf54	0.16479236
49	0x3e27a299	0.1637062
50	0x3d733b0e	0.05938249
51	0xbe9ae16f	-0.30250117
52	0xbe1dea0b	-0.15421312
53	0xbdac3de3	-0.084102415
54	0xbe296552	-0.16542557
55	0xbee12a2d	-0.4397749
56	0xbe2ad50f	-0.16682838
57	0x3cc3209c	0.02381926
58	0xbd5c9226	-0.053850316
59	0x3e8f5610	0.27995348
60	0x3ebc6e3d	0.36802855
61	0xbd12e0af	-0.035858806
62	0xbe2d1a6b	-0.16904609
63	0x3e4fd9a2	0.20297864
64	0x3e84785b	0.25873074
65	0x3e18a72b	0.1490752
66	0xbd2f5af9	-0.042811368
67	0x3e83c178	0.25733542
68	0xbd737fce	-0.059448056
69	0x3e8526ba	0.2600611
70	0xbeb78ff0	-0.35852003
71	0xbd995434	-0.074867636
72	0x3e2026de	0.15639827
73	0x3ea8ad85	0.32944885
74	0xbe5411ee	-0.20709965
75	0xbc207d75	-0.009795536
76	0x3e2fad9e	0.17156073
77	0x3e8b0957	0.27155563
78	0xbe4a7bb8	-0.19773757
79	0x3eb33901	0.35004428
80	0x3d849fae	0.06475769
81	0xbc4b6681	-0.012414576
82	0xbe81f1ad	-0.25379696
83	0xbebb3749	-0.36565617
84	0xbe07f920	-0.13278627
85	0x3d89acb6	0.06722395
86	0xbda7bb7f	-0.08190059
87	0x3e038da2	0.12846997
88	0xbec044f8	-0.3755262
89	0xbe6e2ea9	-0.23259987
90	0xbeb6c3a1	-0.35696128
91	0x3d92cf79	0.071684785
92	0x3e1d41a2	0.15357068
93	0xbda1f5f4	-0.0790824
94	0x3e50977d	0.20370288
95	0xbdb477e1	-0.088119276
96	0xbe65e2cc	-0.22449797
97	0xbe21d701	-0.15804674
98	0x3cc942a0	0.024567902
99	0x3db60a59	0.088886924
100	0xbe87f3e0	-0.2655325
101	0x3e1d8efd	0.15386577
102	0xbdc3cacf	-0.09560167
103	0xbdea64e2	-0.11445023
104	0x3de28973	0.110613726
105	0xbe6f40a4	-0.23364502
106	0xbe785f07	-0.24255
107	0x3bfc266c	0.00769501
108	0xbdb232ca	-0.087010935
109	0xbec816ad	-0.390798
110	0x3ea2c7a6	0.31792945
111	0xbec72120	-0.3889246
112	0x3e789888	0.24276936
113	0x3d921b79	0.07134146
114	0xbda70df4	-0.08156958
115	0x3ca90d70	0.02063629
116	0xbf08c24e	-0.53421485
117	0x3dc14dac	0.09438643
118	0x3d9fec2e	0.078087196
119	0xbf1d1fa2	-0.6137639
120	0xbee72549	-0.45145634
121	0xbe69ae51	-0.22820403
122	0xbe50bdf5	-0.20384963
123	0xbee0ae15	-0.43882814
124	0x3e2c34d1	0.16817023
125	0x3e9b6b9e	0.30355543
126	0x3e155782	0.14584163
127	0x3ea2f71d	0.31829157
128	0xbe297f15	-0.16552384
129	0xbd77f44c	-0.060535714
130	0x3cf7c03f	0.030243037
131	0xbdf75acf	-0.12077867
132	0xbc163c31	-0.009169624
133	0x3d36073c	0.044440493
134	0x3d9f914c	0.07791385
135	0x3d87d423	0.06632259
136	0x3e1ee127	0.15515576
137	0xbdbd2e98	-0.09237403
138	0xbe23ae2f	-0.15984415
139	0xbe79ae40	-0.24382877
140	0x3e0fd1b5	0.1404484
141	0xbd57544a	-0.05257062
142	0xbe35400e	-0.17700216
143	0x3e2e029f	0.16993187
144	0xbe3ac322	-0.182385
145	0xbda4d940	-0.0804925
146	0x3da61b2f	0.081106536
147	0xbe942dff	-0.28941342
148	0xbd1d5d9d	-0.038419355
149	0xbda7bdc1	-0.081904896
150	0x3e9304d5	0.28714624
151	0x3e10d283	0.14142804
152	0x3e212a97	0.15738903
153	0xbda9e22e	-0.082950935
154	0xbe0e0da6	-0.13872394
155	0x3e4f5142	0.20245841
156	0x3e576a6d	0.21036692
157	0x3c16a104	0.009193663
158	0x3e042714	0.12905532
159	0x3da588a3	0.08082702
160	0x3c4e83ef	0.012604698
161	0x3e7355d2	0.23763207
162	0xbc578ccf	-0.01315613
163	0xbea03ed3	-0.3129793
164	0xbe19d823	-0.15023856
165	0xbd666203	-0.056245815
166	0xb9f08fc2	-0.00045883475
167	0xbe9723ea	-0.29519588
168	0xbdae7808	-0.08518988
169	0xbdbbaa04	-0.09163287
170	0xbe27dad6	-0.16392073
171	0x3d3f3cec	0.04668896
172	0x3d03cec7	0.03217962
173	0xbdfceffb	-0.1235046
174	0x3e94633f	0.2898197
175	0xbefcbd35	-0.49363104
176	0xbe0106e5	-0.12600286
177	0xbda52de2	-0.08065392
178	0xbe45545e	-0.19270465
179	0xbdf3dcd6	-0.119073555
180	0xbcef5218	-0.02921395
181	0xbdc90217	-0.09814852
182	0xbe3e9d6f	-0.18614744
183	0xbe230757	-0.15920769
184	0x3e98c2b9	0.29836062
185	0x3d87c4ec	0.06629357
186	0xbce27b8c	-0.027646802
187	0xbcd3100b	-0.025764486
188	0x3e865135	0.2623383
189	0x3e57affa	0.21063223
190	0x3da97396	0.082739994
191	0x3ea29016	0.31750554
192	0x3b88e383	0.004177512
193	0x3e352525	0.17689951
194	0xbddd30a1	-0.10800291
195	0x3e047d8d	0.12938519
196	0xbcd8e6e4	-0.026477285
197	0x3e5ba234	0.21448594
198	0xbe581581	-0.21101953
199	0xbc85346f	-0.016260354
200	0x3eedd14d	0.46448746
201	0x3e9efe4a	0.31053382
202	0xbec3db2a	-0.38253146
203	0xbdb6664f	-0.089062326
204	0xbd26647a	-0.040623166
205	0x3dd93834	0.10606423
206	0xbd904d81	-0.07046033
207	0xbecb7628	-0.39738584
208	0x3f05f59d	0.523279
209	0x3e982e2b	0.29722723
210	0xbda6578c	-0.08122167
211	0xbc8e0f2d	-0.01734122
212	0x3daf6680	0.08564472
213	0x3db1d3ff	0.08683013
214	0xbe8420ee	-0.25806373
215	0xbe409d68	-0.18810046
216	0x3e194cdd	0.14970727
217	0x3f0bfd2c	0.54683185
218	0x3d3d193f	0.046166655
219	0x3e27de1e	0.16393325
220	0xbe0f255d	-0.13979097
221	0x3d02b080	0.031906605
222	0xbe956b7c	-0.29183567
223	0xbe9fb522	-0.3119288
224	0xbe60400a	-0.21899429
225	0x3e25f4b7	0.16206633
226	0x3e9321ce	0.28736728
227	0x3e14b39f	0.14521645
228	0xbe91c603	-0.28471383
229	0xbdcdbff0	-0.10046375
230	0x3d39c433	0.045353126
231	0x3eb8dd75	0.36106458
232	0x3e503bb2	0.20335272
233	0xbe81f011	-0.2537847
234	0xbd9be085	-0.07611183
235	0x3e22da42	0.15903571
236	0xbd82404a	-0.063599184
237	0x3dd0aee3	0.10189607
238	0x3e47ae6c	0.1950013
239	0x3e8b4981	0.27204517
240	0xbcccd8be	-0.025005694
241	0xbe7af2a1	-0.24506618
242	0xbe96119d	-0.29310313
243	0x3dcda5b4	0.10041371
244	0xbd0a78d4	-0.033806637
245	0x3e573b83	0.21018796
246	0x3d6111a3	0.05494846
247	0x3c78eb2f	0.015192791
248	0x3d29e9b4	0.041482642
249	0x3d8f2117	0.06988733
250	0xbe4331b9	-0.19061936
251	0x3e3fd0bb	0.18731968
252	0xbe340219	-0.17578925
253	0x3df330cd	0.118745424
254	0x3d95c3cb	0.07312735
255	0x3d3a876d	0.04553931

lstm.bias_ih_l1 f4 [256]
0	0xbe6757c9	-0.22592081
1	0xbd0f338c	-0.03496127
2	0xbe1e14f9	-0.15437688
3	0xbde5d979	-0.1122312
4	0xbe87ad83	-0.26499566
5	0xbe89179b	-0.26775822
6	0x3bbc23e4	0.005741583
7	0xbe471657	-0.19442116
8	0xbbfe6b7b	-0.0077642775
9	0xbe0ebe8a	-0.13939872
10	0xbd15eac4	-0.036600843
11	0xbd884c9d	-0.06655238
12	0x3d061d18	0.03274259
13	0xbec50143	-0.38477525
14	0xbef99209	-0.48744228
15	0xbc8bcfab	-0.017066797
16	0x3c2a02a6	0.010376608
17	0xbe3765b4	-0.1790989
18	0x3e14c32a	0.14527574
19	0xbe12eaeb	-0.14347427
20	0xbe5c238a	-0.21497932
21	0xbdbe5227	-0.09293013
22	0x3e1a2ea3	0.15056853
23	0x3ce3cfc2	0.027809028
24	0xbe385cb8	-0.1800412
25	0xbe3b18f5	-0.18271239
26	0xbe30a6c4	-0.17251116
27	0xbe481705	-0.19540031
28	0x3e690114	0.22754318
29	0xbe275a22	-0.16342977
30	0x3d9bcfa5	0.076079644
31	0xbea715f3	-0.32633933
32	0x3da5dcab	0.0809873
33	0x3e85a9ab	0.2610601
34	0xbe0b7da6	-0.1362215
35	0xbd22cf8f	-0.039748725
36	0xbd351c89	-0.044216666
37	0xbd9e0280	-0.077153206
38	0xbbc95202	-0.0061438093
39	0xbe614093	-0.2199729
40	0xbe462859	-0.19351329
41	0x3e1be661	0.15224601
42	0xbdcd48fd	-0.10023687
43	0xbe6c1d38	-0.23058021
44	0xbe7cba14	-0.24680358
45	0x3c95d5b0	0.01829037
46	0xbd1f37b2	-0.038871475
47	0xbdbb4075	-0.091431536
48	0xbe1aaad9	-0.15104236
49	0x3c904f82	0.017616037
50	0xbe7a4a3c	-0.2444238
51	0x3da16ae3	0.07881715
52	0xbe1f311d	-0.15546079
53	0xbd5279d0	-0.0513857
54	0x3e377175	0.17914374
55	0xbdefa7cf	-0.11701929
56	0xbddbda0f	-0.10734951
57	0xbdff9c5e	-0.124809965
58	0xbe564ec0	-0.20928478
59	0x3df4ff2d	0.119627334
60	0xbe344ddc	-0.17607826
61	0xbd6e2581	-0.058141235
62	0xbe68a4d8	-0.22719133
63	0xbdf1d3be	-0.11807965
64	0x3ddb4389	0.10706241
65	0xbd970e06	-0.07375722
66	0xbda1a6ca	-0.078931406
67	0xbe8855eb	-0.2662805
68	0xbe687837	-0.22702108
69	0x3d8a7d58	0.06762189
70	0x3d239b82	0.039943226
71	0x3d6c3280	0.057665348
72	0xbdaa2bd9	-0.083091445
73	0xbeaaf4fb	-0.3339003
74	0x3c15c82c	0.009141963
75	0xbee6f1b7	-0.4510629
76	0x3e1f8fd8	0.15582216
77	0xbe98bd94	-0.29832137
78	0xbe83453d	-0.25638762
79	0xbcc98c62	-0.024603073
80	0x3daa2c3d	0.08309219
81	0xbe9f89b7	-0.31159756
82	0xbd458c2f	-0.048229393
83	0x3e3197db	0.17343085
84	0xbee298b7	-0.44257137
85	0xbd62f112	-0.055405684
86	0xbeb17b99	-0.3466461
87	0xbefdfa22	-0.496049
88	0xbdd7bdd2	-0.10534252
89	0xbe3e9de7	-0.18614922
90	0xbcfa5664	-0.030558772
91	0xbe1a13c6	-0.15046605
92	0xbeb36b6e	-0.350429
93	0xbd78295d	-0.060586322
94	0xbc8969de	-0.016774114
95	0xbdc0d432	-0.09415473
96	0x3e494c85	0.19658096
97	0x3d9d8c5c	0.07692787
98	0xbea6bbfd	-0.325653
99	0xbd961e5c	-0.07330009
100	0xbd9014ae	-0.07035194
101	0xbe94c015	-0.29052797
102	0xbe8f6134	-0.28003848
103	0xbe2ddbff	-0.16978453
104	0xbe253a9b	-0.16135637
105	0xbd32abf6	-0.043621026
106	0x3d74429f	0.059633847
107	0xbea39622	-0.3195048
108	0xbec47368	-0.38369298
109	0xbe896f72	-0.2684284
110	0xbd040410	-0.032230437
111	0xbe8fa03c	-0.28051937
112	0xbe1ae2e5	-0.15125616
113	0xbe98061e	-0.29692167
114	0xbd96ac23	-0.07357051
115	0xbe07332d	-0.13203116
116	0xbea717a3	-0.3263522
117	0xbdab92ce	-0.0837761
118	0x3e6b40c9	0.22973932
119	0x3c0ca2be	0.008583723
120	0xbe484885	-0.19558914
121	0xbe85f65d	-0.26164523
122	0xbe4a1268	-0.19733584
123	0xbd973f84	-0.073851615
124	0xbdd5bbaa	-0.10436185
125	0xbeaf8397	-0.34280083
126	0xbea446eb	-0.32085356
127	0xbd935f91	-0.07195962
128	0x3deb75ab	0.11497053
129	0x3d3c640a	0.045993842
130	0x3cb2ae04	0.021811493
131	0xbe930177	-0.28712055
132	0x3c6d46d5	0.01448222
133	0xbaa5bca0	-0.0012644716
134	0xbdc1f853	-0.09471192
135	0x3c77b0d5	0.015117844
136	0x3d101019	0.035171602
137	0xbba243fb	-0.0049519516
138	0xbe39810e	-0.18115637
139	0x3d3e13ae	0.046405487
140	0x3e28c2fa	0.16480628
141	0x3e1a97e1	0.15097
142	0x3d23f245	0.040025968
143	0x3e1663dd	0.14686532
144	0xbe09f344	-0.13471705
145	0x3aad675b	0.0013229655
146	0x3e58561f	0.21126603
147	0xbd4d7a61	-0.050165538
148	0xbe16d828	-0.14730895
149	0xbdde9ae4	-0.10869387
150	0x3d93a7f2	0.072097674
151	0xbe305563	-0.17220072
152	0xbca61642	-0.020274285
153	0xba909e60	-0.0011033528
154	0x3dd2ba7b	0.102894746
155	0xbdc68434	-0.096931845
156	0x3e29e534	0.1659134
157	0xbe455447	-0.1927043
158	0xbe2259a6	-0.1585451
159	0x3d50f18e	0.051011615
160	0x3d1d2e0b	0.038373988
161	0x3d3e6f8d	0.046493102
162	0xbc9d0412	-0.01916698
163	0x3d2cd4e0	0.0421952
164	0x3dfcf202	0.12350847
165	0xbe1a4f15	-0.1506923
166	0x3daa344b	0.08310755
167	0xbce299c1	-0.027661206
168	0xbd3d695c	-0.046243057
169	0xbbe41aa1	-0.006961182
170	0x3d3a5875	0.045494515
171	0xbd20b610	-0.03923613
172	0x3d60bf0c	0.054869696
173	0xbe1f98fc	-0.15585703
174	0x3da628f7	0.08113282
175	0xbe4cc274	-0.19996053
176	0x3b4a9eb3	0.0030917346
177	0xbe3893be	-0.18025109
178	0x3d1c4e5d	0.03816067
179	0x3dd087b0	0.1018213
180	0xbc2ffe76	-0.010741821
181	0xbce8cc75	-0.028417805
182	0x3de5c795	0.11219708
183	0x3ceaf0e7	0.028679324
184	0xbd4a4dd2	-0.04939062
185	0xbce650cb	-0.028114697
186	0x3e4d9151	0.20074965
187	0x3d52d1b0	0.051469505
188	0xbd13bf62	-0.03607119
189	0x3dcfaf13	0.10140815
190	0x3e1e845b	0.15480177
191	0x3b8aa48b	0.004231041
192	0xbe053830	-0.13009715
193	0x3d985afa	0.074392274
194	0xbe5491a8	-0.20758688
195	0xbdc47537	-0.095926695
196	0xbea9607c	-0.33081424
197	0x3e35337f	0.17695425
198	0xbc96e731	-0.018420788
199	0xbe9f579d	-0.3112153
200	0xbba5a8b7	-0.005055513
201	0xbe099362	-0.13435128
202	0xbdd780e5	-0.105226316
203	0xbac35fad	-0.0014905833
204	0xbd1e962d	-0.038717438
205	0xbed57a7d	-0.41695014
206	0xbe88eb78	-0.26742148
207	0x3e5591eb	0.20856445
208	0xbe1e5231	-0.15461041
209	0x3da75cc8	0.081719935
210	0x3dd4460a	0.103649214
211	0xbdc204b9	-0.09473557
212	0xbe90e1a5	-0.28297153
213	0xbe3b743e	-0.18306062
214	0x3df2817e	0.11841105
215	0x3d79fca0	0.061031938
216	0xbdd562e7	-0.10419255
217	0xbda1464e	-0.07874738
218	0xbd86c190	-0.06579888
219	0xbd1902e4	-0.037356272
220	0x3e0536a5	0.13009126
221	0x3cbd1def	0.023085563
222	0x3b7d855c	0.0038684225
223	0x3d8a8986	0.06764512
224	0xbd19939c	-0.037494287
225	0xbc88420b	-0.016633054
226	0xbe5fd46e	-0.21858379
227	0xbdf3d421	-0.11905695
228	0xbd1f46cf	-0.038885888
229	0xbdc3c2ab	-0.09558614
230	0xbcc49d97	-0.024000926
231	0xbe3a7c33	-0.1821144
232	0xbe90b863	-0.28265676
233	0xbc5b4c7f	-0.013384937
234	0xbe1dacac	-0.153979
235	0xbf02e641	-0.5113259
236	0xbe89d7a9	-0.26922348
237	0xbe60710f	-0.21918128
238	0x38a36420	7.7910954e-05
239	0xbdf0c169	-0.1175564
240	0xbd248046	-0.040161394
241	0xbe816d05	-0.25278488
242	0x3d3afe41	0.04565263
243	0x3b97d9cc	0.0046341177
244	0xbdc4344d	-0.09580288
245	0xbc301800	-0.01074791
246	0x3e0a4c1f	0.135056
247	0x3dc4f237	0.09616511
248	0xbe49c608	-0.19704449
249	0x3d8ca6e8	0.06867772
250	0xbe1c1418	-0.1524204
251	0xbdaf83e3	-0.08570077
252	0x3d3a324a	0.045458116
253	0xbe65e1b1	-0.22449376
254	0xbde3589c	-0.11100885
255	0xbdb22e6d	-0.08700261
