Processor/models_multi_file/3_layers_64hd_0.3do_multi_file_model.pkl (torch, 360319 bytes, 18 tensors)

lstm.weight_ih_l0 f4 [256, 17]
0	0x3e7ecf3d	0.24883743
1	0x3e832342	0.25612837
2	0x3dfada71	0.12248696
3	0x3e87a711	0.2649465
4	0x3e4f61cc	0.2025215
5	0x3e895f19	0.26830366
6	0xbeb2dadd	-0.34932604
7	0x3dc05929	0.09392006
8	0xbeae5a8c	-0.34053457
9	0x3da0d6dc	0.07853481
10	0xbe4853a7	-0.19563161
11	0x3e32d6f3	0.17464809
12	0x3e7ce7f7	0.24697863
13	0xba36638f	-0.00069575844
14	0xbe03bfd4	-0.12866145
15	0xbd166967	-0.036721613
16	0x3e15d300	0.14631271
17	0x3e52d98c	0.205908
18	0x3e054243	0.13013558
19	0x3e61c493	0.22047643
20	0x3e05d3e9	0.13069119
21	0x3d8b620f	0.068058126
22	0x3d419e9e	0.04727041
23	0x3e82aaab	0.25520834
24	0xbdb84895	-0.08998219
25	0x3dd13540	0.10215235
26	0xbdb7e2cc	-0.08978805
27	0xbe1b64b7	-0.15175138
28	0x3e4e6415	0.20155366
29	0x3d8bf2fa	0.068334535
30	0x3d56907b	0.05238388
31	0xbe82c1f2	-0.25538594
32	0x3ea424e2	0.3205939
33	0xbe380a19	-0.17972602
34	0xbb4b58e2	-0.003102832
35	0x3deb8100	0.11499214
36	0x3d6ecd7d	0.058301438
37	0x3e0e335c	0.1388678
38	0x3f411c29	0.75433594
39	0x3f346fb5	0.7048295
40	0x3e2b43cd	0.16725083
41	0xbdd04041	-0.101685055
42	0x3dc917e5	0.09819011
43	0x3dd766d0	0.10517657
44	0xbe4dfa32	-0.20114973
45	0xbc7f749d	-0.015591768
46	0x3de3dfed	0.11126695
47	0xbd9797e0	-0.07402015
48	0x3c2ca30d	0.010536921
49	0x3eff9d79	0.4992483
50	0xbd8bcca7	-0.06826144
51	0xbe9ebcfd	-0.31003562
52	0xbeb7e258	-0.35914874
53	0xbe223f1c	-0.15844387
54	0xbe67ccbc	-0.22636694
55	0xbe116ae5	-0.14200933
56	0xbe38562d	-0.18001623
57	0xbd6a5f2c	-0.05721967
58	0xbe3414b3	-0.17586021
59	0xbdf9bd20	-0.12194276
60	0x3d612262	0.05496443
61	0xbea6ec70	-0.32602262
62	0xbe653c7f	-0.22386359
63	0xbe9d0b43	-0.30672655
64	0x3d0630ed	0.032761503
65	0x3d5b755a	0.053578712
66	0x3db417a2	0.0879357
67	0xbd68bd6e	-0.05682128
68	0xbdfa0ef9	-0.12209887
69	0xbdf21170	-0.11819732
70	0x3d88a04d	0.066712
71	0xbb4d9c51	-0.003137369
72	0x3d4dc9e8	0.05024138
73	0xbe4076e5	-0.18795355
74	0xbed8e5ef	-0.42362925
75	0x3e48b2e2	0.19599488
76	0x3e98cc3a	0.29843313
77	0x3ecaeaaa	0.3963216
78	0x3d81fa08	0.06346518
79	0x3d705087	0.058670547
80	0xbde6889a	-0.112565234
81	0xbd3d5893	-0.04622705
82	0x3e494140	0.19653797
83	0xbc7c3321	-0.015393049
84	0x3da2258a	0.07917316
85	0xbe76367c	-0.24044222
86	0xbe0ff518	-0.1405834
87	0xbe9da206	-0.30787677
88	0xbe8ce1ce	-0.27516025
89	0x3d250c98	0.040295213
90	0x3b4ae68b	0.0030960168
91	0xbda99d9d	-0.082820155
92	0xbd986001	-0.07440186
93	0xbd4077f4	-0.046989396
94	0xbe8013f4	-0.25015223
95	0x3d6c0ddd	0.05763041
96	0xbdc2e757	-0.09516781
97	0xbe82d64f	-0.2555413
98	0xbe32b72b	-0.17452686
99	0xbd96d161	-0.073641546
100	0x3d65b239	0.05607817
101	0x3e45fc35	0.1933449
102	0xbd66632d	-0.056246925
103	0xbe0443b4	-0.12916452
104	0xbd130028	-0.03588882
105	0xbdfd0ad6	-0.123555824
106	0xbf0a5c7f	-0.5404739
107	0xbef43efe	-0.4770431
108	0xbe2d68e6	-0.16934547
109	0xbd01265f	-0.031530734
110	0x3ea4322f	0.32069537
111	0x3e2c038e	0.16798231
112	0x3c886e6f	0.016654221
113	0xbe1e12f4	-0.15436918
114	0xbdf374cc	-0.118875116
115	0xbd84ca43	-0.06483891
116	0xbd776806	-0.06040194
117	0xbd357a73	-0.04430623
118	0x3e2fd5f2	0.17171457
119	0xbe744b55	-0.23856862
120	0xbe24c393	-0.1609023
121	0xbe5664b1	-0.20936848
122	0xbe2df55b	-0.16988127
123	0x3d5bb3a0	0.0536381
124	0x3d132bd0	0.035930455
125	0xbe79f3a9	-0.24409355
126	0x3dce35f9	0.10068888
127	0x3e974a43	0.29548845
128	0x3f0b3fea	0.543944
129	0x3e448141	0.19189931
130	0xbd672ba0	-0.05643809
131	0xbe025401	-0.12727357
132	0x3dde78ce	0.108628854
133	0x3eacb440	0.3373127
134	0x3e77f343	0.2421389
135	0xbdb931bd	-0.0904269
136	0xbd3d0e1c	-0.046156034
137	0xbd8919fa	-0.06694408
138	0x3dc3bf12	0.09557928
139	0x3cf77d19	0.030211018
140	0xbd996e74	-0.074917704
141	0xbe5d3d3b	-0.21605389
142	0x3ee23cfa	0.44187146
143	0xbee2a53c	-0.4426669
144	0xbd25fa79	-0.040522072
145	0x3dc5f574	0.09665957
146	0x3e146ee8	0.14495432
147	0x3e230417	0.15919529
148	0x3e32b228	0.17450774
149	0xbe0f5feb	-0.14001434
150	0xbdd4a7a7	-0.1038354
151	0x3e3bfb53	0.18357591
152	0x3e86a17a	0.26295072
153	0xbe7402b5	-0.23829158
154	0xbcedc0df	-0.029022632
155	0xbe7426e7	-0.23842965
156	0xbda5ba36	-0.080921575
157	0xbc6eb89a	-0.01457038
158	0xbd054a1f	-0.03254139
159	0xbe7d8447	-0.24757491
160	0x3ef86aff	0.48519132
161	0xbeb07a0c	-0.34468114
162	0x3d6b6f6d	0.05747931
163	0xbe267937	-0.16257177
164	0xbdc0cc3c	-0.094139546
165	0xbe25c3f2	-0.16188028
166	0xbdf4442b	-0.119270645
167	0xbd8a6a32	-0.067585364
168	0x3c93069c	0.017947488
169	0x3dcf5d7c	0.101252526
170	0xbe0c53ea	-0.13703886
171	0xbda4051a	-0.080087855
172	0xbb8d944d	-0.0043206573
173	0xbdda34b3	-0.10654583
174	0xbe95b1ed	-0.2923731
175	0xbe8c7fee	-0.27441353
176	0xbccd28e5	-0.025043914
177	0x3c184319	0.009293341
178	0xbd646532	-0.05576057
179	0xbea1b356	-0.31582135
180	0x3d9b78ec	0.075914234
181	0xbc39a521	-0.011330874
182	0xbd62581f	-0.05525982
183	0x3d139655	0.03603204
184	0x3e3c5f70	0.18395782
185	0x3f38515e	0.71999156
186	0x3ea66715	0.3250052
187	0xbda9dbf5	-0.082939066
188	0xbdc3acc8	-0.0955444
189	0xbd46bc95	-0.04851969
190	0xbdacacd9	-0.084314056
191	0xbe8c9d79	-0.27463892
192	0xbe3bf7f6	-0.18356308
193	0x3e982270	0.29713774
194	0xbdad279a	-0.08454819
195	0xbe499dbf	-0.19689082
196	0xbefa9797	-0.4894378
197	0xbbcebe95	-0.0063093402
198	0xbd042fc6	-0.032272123
199	0xbcbda3bc	-0.023149364
200	0xbdd5dff9	-0.1044311
201	0xbe195594	-0.14974052
202	0x3f523242	0.8210794
203	0x3e8ce892	0.27521187
204	0x3dbb2574	0.09138003
205	0x3cb00c35	0.021490196
206	0x3cad2f30	0.021140665
207	0xbc686aa5	-0.014185582
208	0xbe9467a5	-0.28985325
209	0xbe3a1f5b	-0.18176024
210	0x3e324cbf	0.17412089
211	0xbd7b8e57	-0.061415043
212	0xbd29acdc	-0.041424617
213	0xbe528021	-0.2055669
214	0x3c663ed2	0.0140530635
215	0x3e60bcbc	0.21946996
216	0x3deb73e5	0.114967145
217	0xbe2d44c3	-0.16920762
218	0x3d98a11a	0.07452603
219	0xbdfc61b3	-0.12323322
220	0x3eaee8f8	0.34162116
221	0xbd3387ae	-0.043830566
222	0xbe469784	-0.19393736
223	0xbe243c70	-0.1603868
224	0xbe853a9f	-0.26021287
225	0xbcfc3f77	-0.030791981
226	0xbd39bd31	-0.045346443
227	0xbdd435ed	-0.10361848
228	0xbed18425	-0.4092113
229	0xbe569f53	-0.20959215
230	0xbc8deab4	-0.01732383
231	0x3ecec9e5	0.40388408
232	0xbda299ce	-0.07939492
233	0xbd08681f	-0.033302423
234	0x3ef230a8	0.47302747
235	0x3e60f94e	0.21970102
236	0xbd9ca974	-0.07649508
237	0x3ea1fb4f	0.31637046
238	0xbe244805	-0.16043098
239	0xbe2fc9ac	-0.17166775
240	0xbb8c14b1	-0.0042749275
241	0xbdf2f139	-0.11862416
242	0xbd924b24	-0.07143238
243	0xbddd0753	-0.107924126
244	0xbe191130	-0.14947963
245	0x3ceb1a29	0.028698998
246	0xbf68e11b	-0.90968484
247	0xbe8d41ea	-0.2758935
248	0x3e14f679	0.14547147
249	0x3ca84f4b	0.020545622
250	0xbdcb33bc	-0.09921977
251	0xbe467bad	-0.19383116
252	0x3db687b7	0.08912604
253	0xbd7d1ce5	-0.061795134
254	0xbea8c332	-0.32961422
255	0xbd0eb7a1	-0.03484309

lstm.weight_hh_l0 f4 [256, 64]
0	0x3d53fb20	0.051753163
1	0xbc15d165	-0.009144162
2	0xbdadecae	-0.08492409
3	0x3e2626f4	0.16225797
4	0x3e6102ce	0.21973726
5	0x3eca6489	0.39529827
6	0x3e46b691	0.19405581
7	0xbaa89112	-0.0012860617
8	0xbeac00b9	-0.335943
9	0xbd439ffc	-0.047759995
10	0xbda69478	-0.08133787
11	0x3e01a59c	0.12660831
12	0xbe06ee5f	-0.13176869
13	0xbe8ef001	-0.27917483
14	0xbe8b1c44	-0.27170002
15	0x3eb6e5f5	0.35722318
16	0xbed6d8ad	-0.41962186
17	0xbe81b60d	-0.25334206
18	0x3caca204	0.021073349
19	0x3d90eb19	0.07076091
20	0xbe735826	-0.23764095
21	0xbe02e574	-0.12782842
22	0x3d163457	0.03667101
23	0x3d140922	0.036141522
24	0xbceb401a	-0.02871709
25	0xbe8b7dc1	-0.2724438
26	0xbe948878	-0.29010367
27	0x3dd866d3	0.10566487
28	0xbe172445	-0.1475993
29	0x3e24e3b4	0.16102487
30	0xbe97a264	-0.29616082
31	0x3e852d81	0.2601128
32	0x3e8d3e96	0.27586812
33	0xbeda9063	-0.42688283
34	0x3f0a9bcc	0.5414398
35	0x3d9a3e2a	0.07531388
36	0xbc17c30c	-0.009262811
37	0x3ed6068a	0.41801864
38	0xbe8110f4	-0.25208247
39	0xbef121e8	-0.4709618
40	0xbde83e63	-0.11340024
41	0xbe2d9e56	-0.16954932
42	0xbd095af1	-0.033533994
43	0xbe35b666	-0.1774536
44	0x3ee959e0	0.45576382
45	0x3e2febcc	0.17179793
46	0x3e8f332d	0.27968732
47	0x3ea0d620	0.31413364
48	0xbe0d1cf2	-0.13780573
49	0xbde06d6e	-0.10958372
50	0xbeab6cf9	-0.33481577
51	0xbd53d71b	-0.051718812
52	0xbeb1913e	-0.34681123
53	0xbf272b62	-0.6530057
54	0xbe23cf25	-0.15996988
55	0xbc30b8c6	-0.010786241
56	0xbe5aa691	-0.21352603
57	0xbe85a48b	-0.261021
58	0xbee5fa4a	-0.44917518
59	0xbe21c72d	-0.15798636
60	0xbef3e83d	-0.4763812
61	0xbe85c141	-0.26124004
62	0x3cdbf7a9	0.026851492
63	0xbee7efe3	-0.45300207
64	0xbd97d7d8	-0.07414216
65	0xbe7bb636	-0.24581227
66	0x3e5f04bd	0.21779151
67	0xbe5647d8	-0.20925844
68	0xbee04a0d	-0.43806496
69	0x3cbb791b	0.022884896
70	0xbe4b27a1	-0.19839336
71	0xbcfeb297	-0.031091018
72	0x3e6f97ac	0.23397702
73	0x3cf046fa	0.02933072
74	0xbe8208c0	-0.253973
75	0xbe45070f	-0.19240974
76	0xbd18b333	-0.037280273
77	0xbe3534b7	-0.1769589
78	0xbef4ede4	-0.47837746
79	0xbd546041	-0.051849607
80	0xbc0562bb	-0.008141215
81	0xbcedb4f5	-0.029016951
82	0x3bad2718	0.0052842014
83	0x3ead9976	0.33906144
84	0xbe986d89	-0.2977107
85	0xbe57cd3d	-0.21074386
86	0x3deb9412	0.115028515
87	0x3e502049	0.20324816
88	0xbe36339c	-0.17793125
89	0x3e451b22	0.19248632
90	0xbdf3ace0	-0.11898208
91	0xbe9641a6	-0.2934696
92	0xbd645403	-0.055744182
93	0xbebc0056	-0.36719006
94	0x3e86304f	0.26208732
95	0xbe64e8e5	-0.22354467
96	0xbe681e05	-0.22667702
97	0x3dd79ede	0.105283484
98	0x3c9326fc	0.017962925
99	0x3daa64f8	0.083200395
100	0xbbe49666	-0.0069759367
101	0x3e16a2d2	0.14710549
102	0xbcb39459	-0.021921324
103	0xbec3eb77	-0.38265583
104	0xbe1814a0	-0.14851618
105	0x3e0c80dd	0.13721032
106	0x3e1b657f	0.15175436
107	0x3ea7b19a	0.32752687
108	0x3db99c34	0.090629965
109	0x3d6d52b0	0.057940185
110	0x3e03287c	0.12808412
111	0xbd8f4ce7	-0.0699709
112	0xbeaebbd5	-0.3412768
113	0xbf01fde1	-0.50778013
114	0x3e6862a6	0.22693881
115	0xbddb8982	-0.10719587
116	0x3e513530	0.20430446
117	0xbda715d3	-0.081584595
118	0xbc1dc399	-0.009629154
119	0xbe9fbb95	-0.311978
120	0xbe36118b	-0.1778013
121	0x3e8ac023	0.27099714
122	0x3d40f609	0.047109637
123	0xbea05818	-0.3131721
124	0xbe06e9a4	-0.13175064
125	0xbe4c7b36	-0.19968876
126	0xbe7ed03c	-0.24884123
127	0x3e3b2d4c	0.18278998
128	0xbe00a3f3	-0.12562542
129	0xbe05dae4	-0.13071781
130	0xbed42e33	-0.41441497
131	0xbb81f3ca	-0.0039658295
132	0xbedae9b2	-0.4275642
133	0x3e40082b	0.18753116
134	0xbd548f5c	-0.05189453
135	0xbeb9e3ab	-0.3630651
136	0xbf109285	-0.5647357
137	0x3eb119ea	0.34590083
138	0x3de117ce	0.109908685
139	0x3ea3215d	0.31861392
140	0xbda335f5	-0.07969276
141	0xbea31ef9	-0.31859568
142	0x3cbd0c29	0.023077087
143	0x3e4079e3	0.18796496
144	0x3eae2193	0.3400999
145	0xbeb6115b	-0.35560116
146	0x3e6015c0	0.21883297
147	0x3c7cab0e	0.015421642
148	0x3ea3b389	0.31972912
149	0x3ef5e643	0.48027238
150	0x3e3bd423	0.18342642
151	0x3d30f820	0.04320538
152	0xbe9c3d30	-0.30515432
153	0xbd979d70	-0.07403076
154	0xbe9b4875	-0.30328718
155	0x3e46e31b	0.19422571
156	0xbea3a11e	-0.3195886
157	0x3dd72826	0.105057046
158	0x3e4b1a60	0.1983428
159	0xbe47a089	-0.19494833
160	0xbd911f18	-0.07086009
161	0xbcaf22f4	-0.021378972
162	0xbe9ceceb	-0.30649504
163	0xbe3d7795	-0.18502648
164	0xbe9d3d52	-0.30710846
165	0x3d178535	0.03699227
166	0xbe29afe5	-0.16571005
167	0xbe1bca26	-0.15213832
168	0xbcc0b6b5	-0.023524622
169	0xbe377f8f	-0.17919753
170	0x3e53362c	0.20626134
171	0xbe88dec4	-0.26732457
172	0xbe472e13	-0.1945117
173	0x3e1fc2c9	0.15601648
174	0x3d227fe4	0.039672747
175	0xbdd377d0	-0.10325587
176	0xbdadb61b	-0.084819995
177	0xbe9d01cf	-0.30665442
178	0xbe09a90e	-0.13443395
179	0x3e0cb620	0.1374135
180	0xbe44f2f8	-0.1923331
181	0xbe5ab40a	-0.21357742
182	0x3f12967a	0.5726086
183	0x3e776af1	0.24161889
184	0x3eabf2e7	0.33583757
185	0x37ff86b8	3.0461102e-05
186	0xbeaa9daa	-0.33323413
187	0xbdee7828	-0.11644012
188	0x3f2073bb	0.6267659
189	0xbd531a43	-0.051538717
190	0x3e9c9bc4	0.3058759
191	0xbed31eb1	-0.41234353
192	0x3eaa14bb	0.3321894
193	0xbda1b58e	-0.07895957
194	0x3e831c42	0.25607497
195	0xbe3ecde8	-0.18633235
196	0xbe1f3e7b	-0.15551178
197	0xbe1dc93f	-0.154088
198	0x3c2da83e	0.010599194
199	0x3d2240fb	0.03961275
200	0xbe35b7de	-0.17745921
201	0xbe844ffc	-0.25842273
202	0x3db60611	0.08887876
203	0xbcc6eab1	-0.024281831
204	0xbe820751	-0.25396207
205	0xbe488a8e	-0.19584104
206	0xbe833d39	-0.25632647
207	0x3d69b1ae	0.057054214
208	0xbf01497e	-0.50502765
209	0x3d2cdf11	0.04220492
210	0xbe8e6352	-0.2781015
211	0xbea7baf6	-0.32759827
212	0x3d625cbe	0.055264227
213	0x3e2af44c	0.16694754
214	0x3d86935b	0.065710746
215	0x3db439e4	0.08800104
216	0xbecc662d	-0.39921704
217	0x3d3c7d7e	0.046018116
218	0x3f312441	0.69195944
219	0xbd5ba0ae	-0.053620033
220	0x3d028406	0.03186419
221	0xbe38764d	-0.18013878
222	0x3e23b93a	0.15988627
223	0xbe1dd541	-0.15413381
224	0xbd3f17ef	-0.046653684
225	0x3dd7b72a	0.10532983
226	0xbea98267	-0.33107302
227	0xbba0194f	-0.0048858295
228	0xbe2a97bc	-0.16659445
229	0x3e55c4bd	0.20875831
230	0xbe750420	-0.23927355
231	0x3e3330d6	0.17499098
232	0x3ef4aaef	0.47786662
233	0xbe9c0eb8	-0.3047998
234	0xbe6826ff	-0.22671126
235	0x3ded6643	0.115917705
236	0xbee1633e	-0.44021028
237	0x3df63166	0.12021141
238	0xbdfcd8e7	-0.12346058
239	0xbd82ca0f	-0.06386196
240	0xbe1bb6f4	-0.1520651
241	0x3e769449	0.24080004
242	0xbe0ceeb1	-0.13762929
243	0xbe76b016	-0.24090609
244	0xbe578c8e	-0.21049711
245	0x3ee01b75	0.43770948
246	0xbd91406f	-0.07092368
247	0xbcd94cb3	-0.02652583
248	0x3cb4d3cd	0.02207365
249	0xbb8181f8	-0.003952261
250	0xbc97ca0a	-0.018528957
251	0xbd864b1a	-0.06557293
252	0x3c65dda4	0.014029894
253	0x3e075d16	0.13219103
254	0xbec23531	-0.37931207
255	0xbd508e93	-0.05091722

lstm.bias_ih_l0 f4 [256]
0	0x3ec6e039	0.38842943
1	0x3e0e78bc	0.13913244
2	0xbdbf9ca3	-0.09356048
3	0x3dbfd884	0.09367469
4	0x3dc2dfe4	0.0951536
5	0x3dc0f909	0.094225
6	0x3e750775	0.23928626
7	0xbe2be613	-0.16786985
8	0x3e462aca	0.1935226
9	0xbd40cf75	-0.047072846
10	0x3d1eb940	0.038750887
11	0x3dee7f79	0.11645407
12	0xbd523e35	-0.051328856
13	0x3e1b061d	0.15139051
14	0xbd4ecf7d	-0.050490845
15	0xbe0a8ede	-0.13531062
16	0x3e831c5d	0.25607577
17	0x3e829159	0.25501516
18	0xbe45cc21	-0.1931615
19	0xbd954f3e	-0.07290505
20	0xbe46813f	-0.19385241
21	0x3e64cd1e	0.22343871
22	0x3e846ec0	0.25865746
23	0x3c9c071c	0.019046359
24	0x3d9d9a65	0.07695464
25	0x3c6d560b	0.014485846
26	0x3de537fc	0.11192319
27	0x3e43221a	0.19055977
28	0xbdd3ff3a	-0.10351415
29	0xbe172017	-0.14758335
30	0x3e81822d	0.2529463
31	0x3e1ddc13	0.15415983
32	0x3e83efc0	0.25768852
33	0x3e5ac57a	0.21364394
34	0x3e36c4d1	0.17848517
35	0xbd298aed	-0.041392256
36	0xbcca9083	-0.024727112
37	0x3d79d89c	0.06099759
38	0xbc701631	-0.014653728
39	0x3c98b4bb	0.018640867
40	0xbcbadac1	-0.022809388
41	0x3d92b896	0.07164113
42	0x3e29e47c	0.16591066
43	0x3d173edb	0.036925178
44	0x3e71a66a	0.23598638
45	0xbdf16326	-0.11786489
46	0x3dc958b9	0.09831376
47	0xbdb61797	-0.08891218
48	0x3d451dd3	0.048124146
49	0xbe2e8daf	-0.17046236
50	0x3d979df3	0.07403173
51	0x3e30e0f7	0.17273317
52	0xbd359809	-0.044334445
53	0x3e03f5b9	0.12886705
54	0x3dc377e2	0.0954435
55	0x3e1e396c	0.15451592
56	0xbd8e1186	-0.06936936
57	0x3dff8093	0.124756955
58	0x3e7460be	0.23865029
59	0x3e8a9254	0.27064764
60	0x3e0b1ac2	0.13584426
61	0x3c83de31	0.01609716
62	0x3e0293c4	0.1275168
63	0x3d9071c7	0.07052951
64	0x3d80f3b9	0.062964864
65	0xbd8527ab	-0.06501707
66	0xbdc6f509	-0.097147055
67	0x3d5663d6	0.052341305
68	0x3d015e02	0.031583793
69	0xbd5deecd	-0.054182816
70	0xbdc983a1	-0.09839559
71	0xbe230a53	-0.15921907
72	0xbdc2f7d4	-0.09519926
73	0xbd8d0453	-0.068855904
74	0xbe11837a	-0.1421031
75	0xbcb501c0	-0.022095561
76	0x3d269507	0.040669467
77	0xbcecef3f	-0.028922675
78	0xbd8eb702	-0.069685
79	0x3d3cfecf	0.046141442
80	0xbd9c62e1	-0.07636047
81	0xbdbe0ce1	-0.092798
82	0x3b23aceb	0.0024974893
83	0xbd4977e5	-0.049186606
84	0xbe1021a0	-0.14075327
85	0xbe2c21e9	-0.1680981
86	0xbe3ad385	-0.18244751
87	0x3c880775	0.016605118
88	0x3dc00331	0.09375609
89	0x3b96d149	0.0046025855
90	0x3db373a8	0.08762294
91	0x3dcd5d4d	0.10027561
92	0x3c13ea17	0.009027979
93	0x3ce23ffc	0.0276184
94	0xbe9453bb	-0.2897013
95	0xbd5cfe2d	-0.05395334
96	0xbd920d3c	-0.071314305
97	0x3df2f7c6	0.11863665
98	0xbdb650e5	-0.08902148
99	0xbd9f24d8	-0.07770699
100	0xbccc3ce0	-0.024931371
101	0x3d8e1a7c	0.06938645
102	0xbe4d8b23	-0.20072608
103	0xbc3a8b95	-0.011385818
104	0x3e084790	0.13308549
105	0xbdc932e5	-0.098241605
106	0x3e16e426	0.14735469
107	0x3ddcb84d	0.1077734
108	0x3e41ddeb	0.18932311
109	0xbb4a3434	-0.003085387
110	0x3c31875c	0.010835495
111	0x3da71731	0.0815872
112	0x3e363eba	0.17797366
113	0x3ded5b9f	0.11589741
114	0xbe178007	-0.14794932
115	0x3de247b9	0.11048836
116	0x3d903bb0	0.070426345
117	0xbdd2b149	-0.10287721
118	0xbd5e0b2d	-0.054209877
119	0x3d9340ea	0.07190116
120	0xba742540	-0.0009313412
121	0x3d12e1d5	0.0358599
122	0x3cae7ba4	0.02129919
123	0x3dd438bb	0.10362383
124	0xbd9dbb1b	-0.07701703
125	0x3bf971e0	0.007612452
126	0xbe041ef3	-0.12902431
127	0x3e0d7105	0.13812645
128	0xbe2cff34	-0.16894227
129	0x3df2d2ec	0.118566364
130	0x3d2d89f0	0.042367876
131	0xbce87493	-0.0283759
132	0x3d57190a	0.052514113
133	0x3e805418	0.25064158
134	0x3bd4b832	0.0064916844
135	0x3c95072c	0.018191896
136	0xbd8c0512	-0.068369046
137	0xbc7f64d1	-0.015588001
138	0xbd9b6ab6	-0.07588713
139	0x3d6c505c	0.057693824
140	0x3e1bbf1d	0.15209623
141	0x3dee2f46	0.116301104
142	0xbdc31836	-0.09526102
143	0x3d406a9a	0.046976663
144	0x3d4fe0fa	0.050751664
145	0xbdeb1728	-0.11479026
146	0xbce42916	-0.027851623
147	0xbc2b229e	-0.010445265
148	0x3bcc706a	0.0062389867
149	0x3e09d0d5	0.1345857
150	0xbe37dd24	-0.17955452
151	0xbd7c9715	-0.06166752
152	0x3c823201	0.015892984
153	0x3d34c0ca	0.04412917
154	0xbe4150b5	-0.18878444
155	0x3d067c5c	0.032833442
156	0x3d7f1c17	0.062282648
157	0xbe47d942	-0.19516471
158	0xbc67c4f2	-0.0141460765
159	0x3cda9cc2	0.026686076
160	0xbd865fdc	-0.065612525
161	0xbdfd96bc	-0.12382266
162	0x3d5dcd6a	0.054150976
163	0xbd85e8eb	-0.06538566
164	0x3d829783	0.06376555
165	0x3cb3d7a6	0.021953415
166	0x3e2189b5	0.15775187
167	0x3cb3f37c	0.021966688
168	0x3b5da103	0.0033817894
169	0xbd86ccb5	-0.065820135
170	0xbd7913f1	-0.060810033
171	0xbccc1775	-0.024913529
172	0xbcfaeaff	-0.030629633
173	0xbdf0ed7f	-0.11764049
174	0x3ae93e85	0.0017795122
175	0x3de3dfdc	0.11126682
176	0xbd8c701c	-0.06857321
177	0xbe3e9149	-0.1861011
178	0x3c32e93d	0.010919866
179	0xbdd77935	-0.10521165
180	0xbe4f47c3	-0.20242219
181	0xbdeb31f5	-0.11484138
182	0x3bbeebbc	0.0058264416
183	0x3d9ce61d	0.07661078
184	0xbda99033	-0.08279457
185	0xbde03860	-0.10948253
186	0xbc6db76f	-0.014509066
187	0xbda876a5	-0.08225755
188	0xbdc0627b	-0.09393784
189	0xbd5a5438	-0.053302974
190	0xbd64dcd3	-0.055874657
191	0x3ca4de27	0.020125462
192	0x3e3a3380	0.18183708
193	0xbe0beb83	-0.1366406
194	0x3e7125c2	0.2354956
195	0xbd28d5a7	-0.04121938
196	0x3e3b537e	0.18293568
197	0x3e23d830	0.16000438
198	0x3dff5620	0.12467599
199	0xbbca4d45	-0.006173762
200	0x3d2e11d5	0.042497475
201	0x3d46c581	0.0485282
202	0xbdec077c	-0.11524865
203	0x3ece5725	0.4030086
204	0xbd89ca26	-0.0672801
205	0x3e847a17	0.25874397
206	0x3cdc7873	0.026912903
207	0x3d8f8536	0.0700783
208	0x3e501659	0.20321025
209	0x3eb1bfc2	0.34716612
210	0x3e541828	0.2071234
211	0x3dc9be24	0.098507196
212	0x3e108fae	0.1411731
213	0x3e5961c8	0.21228707
214	0xbd297d51	-0.041379277
215	0xbd1d7aa9	-0.038447056
216	0x3e36ac6f	0.17839216
217	0x3e4d2fcc	0.20037764
218	0x3e04925e	0.1294646
219	0x3e1721e8	0.14759028
220	0x3e4514d8	0.19246233
221	0xbd5d773b	-0.054068785
222	0x3ebf761e	0.37394804
223	0x3db06971	0.08613861
224	0x3e2c3b60	0.16819525
225	0x3e2dc875	0.16971
226	0x3e8c7375	0.27431837
227	0x3e4dd6af	0.20101427
228	0x3e6a89e9	0.22904171
229	0xbd79fba3	-0.061030995
230	0xbd0ae456	-0.033909164
231	0x3e1a4830	0.150666
232	0x3e55536a	0.20832601
233	0x3dd8b2bf	0.10580968
234	0x3e6553c5	0.22395237
235	0x3c9465b3	0.0181149
236	0x3e393c5a	0.18089429
237	0x3da8173f	0.08207559
238	0x3eae4375	0.3403584
239	0x3ea97c25	0.33102527
240	0x3e6ff176	0.23431954
241	0x3de82f30	0.11337125
242	0x3d118aae	0.035532646
243	0x3d2a04be	0.04150843
244	0x3dc10fa9	0.09426815
245	0x3b802c91	0.0039115627
246	0x3dbb405a	0.091431335
247	0x3f022f74	0.5085366
248	0xbca34ac4	-0.019933112
249	0x3e317d7e	0.17333028
250	0x3beeb7cc	0.007285094
251	0x3ef8d3cc	0.48599088
252	0x3e5436f3	0.20724086
253	0x3e3eea5e	0.18644091
254	0x3e337f34	0.17528993
255	0x3e1ac840	0.15115452

lstm.bias_hh_l0 f4 [256]
0	0x3e62f44d	0.22163506
1	0xbc0e6783	-0.008691671
2	0xbe058615	-0.1303943
3	0xbca8d61f	-0.020609913
4	0x3d6e65bc	0.05820249
5	0x3e5b8e94	0.21441108
6	0x3eb1b8ae	0.34711212
7	0xbe10446f	-0.14088605
8	0x3df8213a	0.121157125
9	0xbe6b9c1b	-0.23008768
10	0xbcadbecb	-0.021209141
11	0x3e40a08f	0.18811248
12	0xbdb4b1dd	-0.08822987
13	0x3da6e1ed	0.08148561
14	0xbd02a1c7	-0.031892564
15	0x3da15486	0.0787745
16	0x3e9a8570	0.3017993
17	0x3e2f2320	0.17103243
18	0xbe1845f1	-0.1487043
19	0xbdc392c6	-0.09549479
20	0xbd48e3b0	-0.049045265
21	0x3e7954a6	0.24348697
22	0x3de9a47a	0.114083245
23	0x3ccd2a78	0.025044665
24	0xbc076870	-0.008264646
25	0xbe24659d	-0.16054387
26	0x3d576299	0.052584264
27	0x3e8a300b	0.2698978
28	0xbdbc2384	-0.091864616
29	0x3be448b1	0.0069666733
30	0x3e2b3f8e	0.16723463
31	0x3e373a0f	0.17893241
32	0x3e81fbd9	0.25387457
33	0x3e3ce31e	0.18446013
34	0x3d93c700	0.072156906
35	0x3da6ce4d	0.081448175
36	0x3cfb805f	0.03070086
37	0x3d5cfed7	0.05395397
38	0xbda27501	-0.07932473
39	0x3dae1019	0.08499164
40	0x3dd18379	0.102301545
41	0x3dc90b48	0.09816605
42	0x3d9eeac7	0.07759624
43	0xbdac9902	-0.084276214
44	0x3dd6c40d	0.104866125
45	0xbdd6bf67	-0.10485726
46	0x3de1e547	0.11030059
47	0x3dd451c5	0.10367159
48	0x3deeba42	0.116566196
49	0xbe43e2ab	-0.19129436
50	0x3df6fe79	0.120602556
51	0x3e3cb325	0.18427713
52	0x3db0b06d	0.086274005
53	0x3dfe2b33	0.12410583
54	0x3d4719e9	0.048608694
55	0x3e428a94	0.18998176
56	0x3bcbb2ce	0.0062163835
57	0x3e3aa175	0.18225653
58	0x3e49b798	0.19698942
59	0x3e8b5292	0.27211434
60	0x39b36522	0.0003421689
61	0xbd4cee16	-0.050031744
62	0xbd5d1413	-0.053974222
63	0x3e2a253f	0.16615771
64	0xbdb0e21c	-0.08636877
65	0xbd961bb9	-0.073295064
66	0x3d108feb	0.0352935
67	0xbe12b58e	-0.1432707
68	0x3c4ace28	0.012378253
69	0x3def7d05	0.116937675
70	0xbd6e7198	-0.0582138
71	0xbd8963a2	-0.067084566
72	0x3e088ec3	0.1333571
73	0x3ddb6c3f	0.10714006
74	0x3cbe5f3d	0.023238773
75	0xbc0abf5f	-0.008468478
76	0x3bcb32c7	0.0062011215
77	0x3d5f29cd	0.054483224
78	0x3c6b8145	0.014374082
79	0x3dcd8f47	0.100370936
80	0x3d060599	0.032720182
81	0x3d444527	0.04791751
82	0xbd925910	-0.071458936
83	0x3b7bf979	0.0038448258
84	0xbe3718ac	-0.17880505
85	0xbd43c8fc	-0.047799096
86	0xbcdbbfbd	-0.026824826
87	0x3e13385e	0.14376971
88	0x3dc677a3	0.09690788
89	0xbd7a5eca	-0.061125554
90	0x3d7f36c2	0.06230808
91	0xbd3cfa58	-0.046137184
92	0x3e53c45b	0.20680372
93	0x3d9b6f34	0.0758957
94	0xbe8dc0e5	-0.2768623
95	0xbdb43de5	-0.08800868
96	0xbd154259	-0.036440227
97	0xbdd7c210	-0.10535061
98	0x3dd55c09	0.10417945
99	0x3c9c7461	0.019098463
100	0x3e4fb171	0.20282532
101	0x3d829a53	0.06377091
102	0xbdde5747	-0.108564906
103	0x3d8dda73	0.069264315
104	0x3deb3dd4	0.11486402
105	0xbe245542	-0.16048148
106	0x3e1eafec	0.15496796
107	0x3dcb7775	0.09934894
108	0x3db56e3e	0.08858918
109	0xbe42e417	-0.19032322
110	0x3cf7c48a	0.030245084
111	0x3e14bff3	0.14526348
112	0x3d3258a4	0.043541566
113	0x3c8868ed	0.016651595
114	0xbdccced0	-0.10000384
115	0x3ce5d678	0.028056368
116	0x3dde62fc	0.108587235
117	0x3d02d863	0.031944644
118	0xbdc33219	-0.0953104
119	0x3d962608	0.07331473
120	0x3da16af0	0.07881725
121	0x3e0e350c	0.13887423
122	0x3db2c12f	0.08728253
123	0xbdc9f17b	-0.09860512
124	0xbce647cd	-0.02811041
125	0x3d7d9ffe	0.06192016
126	0xbcbf1163	-0.02332372
127	0x3db474d4	0.08811346
128	0xbe4c4f4e	-0.19952127
129	0x3cff5b26	0.031171393
130	0xbdab1b73	-0.08354845
131	0x3d4220a6	0.047394417
132	0x3cb672cc	0.022271536
133	0x3e6ef4ff	0.23335646
134	0xbe4e22ae	-0.20130417
135	0xbd8ed1b3	-0.06973591
136	0x3d0f5e2a	0.03500191
137	0xbd8947e5	-0.06703166
138	0x3b8d91e5	0.0043203705
139	0xbd82fbea	-0.06395705
140	0x3e10090d	0.14065953
141	0xbd3e4317	-0.0464507
142	0xbddd66e6	-0.10810642
143	0xbcfe8abb	-0.031072011
144	0x3d9d206b	0.07672199
145	0xbde13de2	-0.10998131
146	0xbde2a603	-0.110668205
147	0xbd7c3164	-0.06157054
148	0xbc69f18a	-0.014278779
149	0x3df5eb47	0.12007766
150	0xbdaf3384	-0.08554748
151	0x3c409fe2	0.011756869
152	0x3e47cae5	0.19510992
153	0xbe0db4d6	-0.13838515
154	0xbdc41e75	-0.09576122
155	0x3da0ea4c	0.078571886
156	0x3d788a01	0.060678486
157	0xbda81b70	-0.08208358
158	0x3d83a0f2	0.06427182
159	0xbe4ff419	-0.2030796
160	0xbd09644b	-0.033542912
161	0xbe3b9055	-0.18316777
162	0x3e2e6974	0.17032415
163	0xbdb31dc4	-0.08745912
164	0x3d86d6b6	0.065839216
165	0xbc59255a	-0.013253534
166	0x3e2aa9a3	0.16666274
167	0xbe18df24	-0.14928871
168	0x3d384acc	0.044993207
169	0x3d9a4331	0.07532347
170	0x3d84bbf1	0.064811595
171	0x3cb0d061	0.021583738
172	0x3d948711	0.072523244
173	0xbcf3ccb1	-0.02976069
174	0x3d7a4829	0.061103974
175	0xbb7a7f84	-0.0038222978
176	0xbce0c8aa	-0.027439434
177	0xbe2c7b5f	-0.16843937
178	0xbdc986e0	-0.098401785
179	0xbe884be8	-0.26620412
180	0xbe48d5a3	-0.19612746
181	0xbdae5b0b	-0.08513459
182	0x3d2bcbd2	0.041942425
183	0x3d40975b	0.047019344
184	0xbd10595f	-0.03524148
185	0x3d8e7858	0.069565475
186	0x3d496b65	0.049174685
187	0xbd5c9372	-0.053851552
188	0x3cffdc8a	0.03123309
189	0xbdba3c3b	-0.09093519
190	0xbdad8e2b	-0.08474382
191	0x3e63dc82	0.22252086
192	0x3e88eb6b	0.2674211
193	0x3b2c8532	0.0026324508
194	0x3e099787	0.1343671
195	0x3e024778	0.12722576
196	0x3d943d13	0.072382115
197	0x3db8e26c	0.090275615
198	0x3de6a444	0.112618
199	0x3d6b943f	0.057514425
200	0xbbc0ff16	-0.0058897836
201	0xbc8cfc8c	-0.017210267
202	0xbe10a9be	-0.14127252
203	0x3e8d0ce9	0.27548912
204	0xbdd3d459	-0.103432365
205	0x3e834834	0.25641024
206	0x3c7447b7	0.014909676
207	0x3ddd5966	0.10808067
208	0x3e8a8fa1	0.27062705
209	0x3ec6d260	0.38832378
210	0x3da839ac	0.08214125
211	0x3e754c95	0.23954995
212	0x3cc55fff	0.024093626
213	0x3ec467bc	0.38360393
214	0xbdb60fd7	-0.0888974
215	0x3c5de273	0.013542759
216	0x3e2527dd	0.16128488
217	0x3e0ad27c	0.13556856
218	0xbcd33ef4	-0.025786854
219	0x3e41a703	0.18911366
220	0x3ce7c8fc	0.028294079
221	0xbcee10c2	-0.029060725
222	0x3e072358	0.13197076
223	0x3de4d1ef	0.11172854
224	0x3e5ae502	0.21376422
225	0x3e2e77a1	0.17037822
226	0x3e29c521	0.16579105
227	0x3e407fe3	0.18798785
228	0x3d9261a7	0.07147532
229	0xbdb1e672	-0.08686532
230	0xbda49310	-0.080358624
231	0x3e94da11	0.2907262
232	0x3e840132	0.25782162
233	0x3db5b311	0.08872045
234	0x3e45feb7	0.19335447
235	0xbdc65557	-0.09684246
236	0x3e660220	0.22461748
237	0xbe1b3f85	-0.1516095
238	0x3ead19b8	0.33808684
239	0x3ebde01f	0.37085053
240	0x3e8e1917	0.27753517
241	0x3d2cce50	0.042188942
242	0x3e11be24	0.14232689
243	0x3d9b8b2e	0.07594906
244	0x3e379e22	0.17931417
245	0x3db34e98	0.08755225
246	0x3d96bf2b	0.07360681
247	0x3eba5cea	0.36399013
248	0x3d48430b	0.048892062
249	0x3e385732	0.18002012
250	0x3d4df42c	0.05028169
251	0x3e867408	0.262604
252	0x3dfdd624	0.1239436
253	0x3e2a9264	0.16657406
254	0x3d3462fa	0.044039704
255	0x3d871a45	0.065968074

lstm.weight_ih_l1 f4 [256, 64]
0	0xbd842873	-0.064530276
1	0xbe0594ad	-0.13044997
2	0x3e72f557	0.23726402
3	0x3d640b36	0.055674754
4	0xbd7b0470	-0.06128353
5	0x3e17e967	0.1483513
6	0xbd169273	-0.03676076
7	0x3db59a91	0.08867372
8	0x3c7593f3	0.014988887
9	0xbdef2cc6	-0.11678462
10	0xbeac721e	-0.33680815
11	0xbe5f877c	-0.21829027
12	0x3d5ce77a	0.05393169
13	0xbdc4f75a	-0.09617491
14	0xbc63795e	-0.013883917
15	0xbd9a4e5d	-0.07534478
16	0xbdf56622	-0.11982371
17	0x3ed0c3e0	0.4077444
18	0x3e593c00	0.21214294
19	0x3e4d3917	0.2004131
20	0x3dad1c67	0.08452683
21	0xbd53c888	-0.051704913
22	0x3ded855d	0.11597703
23	0x3e754190	0.23950791
24	0x3e9c2dcb	0.30503687
25	0xbdcbbc32	-0.09948005
26	0x3eae1681	0.34001544
27	0xbdb113cf	-0.08646356
28	0xbd83203b	-0.06402632
29	0xbb15078b	-0.0022740092
30	0x3eb25ec1	0.34837916
31	0x3bd73e8e	0.0065687364
32	0xbdd52b69	-0.104086705
33	0xbd17914e	-0.037003808
34	0xbec077e4	-0.3759147
35	0xbc9dd2db	-0.019265583
36	0x3dfec5dd	0.12440083
37	0x3dcb213a	0.09918447
38	0x3da75538	0.08170551
39	0xbeab95dc	-0.3351277
40	0x3db64061	0.08898998
41	0xbe5fc6df	-0.21853207
42	0x3ebb0c12	0.36532646
43	0xbe75db45	-0.24009426
44	0x3e9c95e4	0.30583107
45	0xbd99a47d	-0.07502077
46	0xbd3a0785	-0.045417327
47	0xbe276006	-0.16345224
48	0x3da21c7d	0.0791559
49	0x3e386e37	0.18010794
50	0x3f03e59d	0.5152224
51	0x3d98e1d0	0.07464945
52	0x3e089e88	0.13341725
53	0xbd854b10	-0.06508458
54	0x3dcd773b	0.10032507
55	0xbd9335de	-0.07188009
56	0x3e07ae72	0.1325014
57	0xbbeaf114	-0.007169852
58	0x3d17802b	0.036987465
59	0xbe370ed7	-0.17876755
60	0xbbd5e90e	-0.0065280264
61	0x3e4b54dc	0.1985659
62	0xbe78659c	-0.24257511
63	0x3c5dabbb	0.013529713
64	0x3e3dd863	0.18539576
65	0x3e870acd	0.26375428
66	0x3ec18735	0.37798467
67	0x3cb34ee3	0.021888202
68	0x3e2a120c	0.16608447
69	0xbe5f0610	-0.21779656
70	0x3e445960	0.19174719
71	0x3e254550	0.16139722
72	0xbb96e455	-0.004604856
73	0xbd8c41c7	-0.068484835
74	0xbe73f8b8	-0.23825347
75	0xbc353c20	-0.011061698
76	0xbda59f48	-0.08087021
77	0xbd5327c4	-0.051551595
78	0x3e145cc4	0.14488512
79	0x3daaeeb4	0.0834631
80	0x3e5a7df3	0.21337108
81	0xbe1d9b5b	-0.15391295
82	0x3cbbde0c	0.022933029
83	0x3e7f1bff	0.24913023
84	0xbd8097fa	-0.06278987
85	0xbe6fcad3	-0.23417215
86	0xbbd88ddd	-0.0066087083
87	0x3e5e6edb	0.21721976
88	0xbdebb1e8	-0.11508542
89	0x3c6b135c	0.014347877
90	0xbd09ecc2	-0.033673055
91	0xbe480db9	-0.19536485
92	0x3e3e897f	0.18607138
93	0x3dc2879b	0.09498521
94	0xbe7aac93	-0.24479894
95	0x3e6faeed	0.23406573
96	0x3a4b7de6	0.0007762596
97	0x3ea1f76f	0.3163409
98	0xbe445d20	-0.1917615
99	0xbe38bf34	-0.18041688
100	0x3e5e49f8	0.21707904
101	0x3dde67aa	0.10859616
102	0xbc57579a	-0.013143444
103	0xbe6825e3	-0.22670703
104	0x3d820579	0.063487
105	0x3dd00ebf	0.101590626
106	0xbe753f74	-0.23949987
107	0x3e0cc9c6	0.13748845
108	0xbeaf280d	-0.34210244
109	0xbc4fa509	-0.012673625
110	0xbe8b8ee7	-0.27257463
111	0xbe93b9d6	-0.2885272
112	0xbe056497	-0.13026653
113	0x3d3e701d	0.04649364
114	0xbe1ca909	-0.15298857
115	0xbea5af09	-0.32360104
116	0x3bc2c2c6	0.005943629
117	0x3ea4cce4	0.3218757
118	0xbddfca24	-0.10927227
119	0x3c0ae9ea	0.008478621
120	0x3de266f8	0.11054796
121	0x3e296536	0.16542515
122	0x3d71352d	0.058888603
123	0xbe67286c	-0.22574013
124	0xb9c4fc4c	-0.0003757201
125	0x3b254260	0.0025216565
126	0x3dd3782a	0.10325654
127	0x3b859be4	0.0040774215
128	0x3e2c8514	0.1684764
129	0x3e655a00	0.22397614
130	0x3d381cf0	0.044949472
131	0x3ead979e	0.33904737
132	0x3d8bb968	0.06822473
133	0xbda43c50	-0.08019316
134	0x3dc38bec	0.09548172
135	0x3ec235c0	0.37931633
136	0x3e37a0ff	0.17932509
137	0x3ddd70e6	0.10812549
138	0xbda16113	-0.078798436
139	0xbbd9f373	-0.006651336
140	0x3dd9261f	0.10602974
141	0xbdba079d	-0.09083483
142	0xbd902218	-0.07037753
143	0x3db314aa	0.08744176
144	0x3e3db7d9	0.18527164
145	0xbc9035a4	-0.017603703
146	0x3d9e0cc3	0.07717278
147	0x3d058814	0.032600477
148	0xbc873661	-0.016505422
149	0xbe8af067	-0.27136537
150	0x3d54706d	0.05186503
151	0xbe36fa0b	-0.17868821
152	0x3dc1b367	0.094580464
153	0x3e87343b	0.26407036
154	0x3cb7c3ac	0.02243217
155	0xbe890f4a	-0.26769477
156	0xbdc7bfc5	-0.09753374
157	0x3cade7ce	0.021228697
158	0xbca0e3f5	-0.019639948
159	0x3f1f7055	0.6228078
160	0x3ec16009	0.37768582
161	0x3eb87d8d	0.36033288
162	0xbd329fb9	-0.043609355
163	0xbe5c81b7	-0.21533857
164	0xbcd8ac2c	-0.026449285
165	0x3d95ba8b	0.07310971
166	0xbd8ca6b8	-0.068677366
167	0x3dfcfbaf	0.12352692
168	0x3e0e2b8e	0.13883802
169	0xbcdaee6b	-0.026725015
170	0xbc9c6ac5	-0.01909388
171	0x3e794af3	0.24344997
172	0xbeec59a2	-0.46162134
173	0xbd873d3a	-0.06603475
174	0xbcde8207	-0.027161611
175	0xbe385f81	-0.18005182
176	0x3cd556df	0.0260424
177	0xbbbbe92d	-0.005734584
178	0xbee0a05b	-0.43872342
179	0x3e176aea	0.14786878
180	0x3d86e44c	0.06586513
181	0x3dae6e1d	0.08517096
182	0xbd06bbd9	-0.03289399
183	0xbcd3e02f	-0.025863735
184	0x3dff7591	0.12473596
185	0xbe5e75e0	-0.21724653
186	0xbe270b71	-0.16312958
187	0xbe5cc5b9	-0.215598
188	0x3e7338f5	0.23752196
189	0xbb8d4867	-0.0043116095
190	0xbe96b1e5	-0.29432598
191	0xbd27c59e	-0.040959947
192	0x3db76446	0.089546725
193	0xbe674790	-0.22585893
194	0xbda6ece4	-0.08150652
195	0xbe46e9bf	-0.19425105
196	0xbce63d78	-0.028105482
197	0xbeb813c3	-0.35952577
198	0xba902814	-0.0010998272
199	0x3eabc783	0.33550653
200	0x3e963ff1	0.29345658
201	0x3ee8d6b5	0.45476308
202	0xbeccc571	-0.39994386
203	0xbe901088	-0.28137612
204	0xbeafb3e0	-0.3431692
205	0x3e195933	0.14975433
206	0x3f05f6ba	0.523296
207	0xbdf87830	-0.12132299
208	0x3e91f70a	0.28508788
209	0xbe5e777f	-0.21725272
210	0x3e1799e2	0.14804795
211	0x3dc6466b	0.096814
212	0xbde0abfd	-0.10970304
213	0xbea0fa67	-0.31441042
214	0xbe0ec526	-0.13942394
215	0xbc1e2b44	-0.00965387
216	0x3e2243b9	0.15846147
217	0xbe13df79	-0.14440717
218	0x3cf1630d	0.029466176
219	0xbea2baaf	-0.31783053
220	0xbdba913b	-0.09109732
221	0xbe96acfc	-0.29428852
222	0x3ea7eb11	0.3279653
223	0x3e2b9de8	0.16759455
224	0x3e1e796c	0.15476006
225	0x3ea1da26	0.31611747
226	0xbe1a7c6f	-0.1508653
227	0xbf0a15d4	-0.5393956
228	0xbd05bb1d	-0.03264915
229	0x3ecf464e	0.40483326
230	0x3e3a4d33	0.18193512
231	0x3e2afd5e	0.16698214
232	0xbe18a4e2	-0.14906648
233	0xbe8e67bd	-0.2781352
234	0x3ebe5892	0.3717695
235	0x3ea7142d	0.3263258
236	0x3ea0daaf	0.31416842
237	0xbe8de1dc	-0.2771138
238	0xbd772ce0	-0.06034553
239	0xbd2f3e2d	-0.042783905
240	0xbc2cee90	-0.010554925
241	0xbe63dd65	-0.22252424
242	0x3c46fd1d	0.012145308
243	0xbe54a110	-0.20764565
244	0x3e18d2f5	0.14924224
245	0xbcd50426	-0.026002955
246	0x3d692216	0.056917273
247	0xbdf6a21d	-0.120426394
248	0xbd836c07	-0.06417089
249	0x3eb47c40	0.35251045
250	0x3e9f293b	0.31086144
251	0xbe1586d7	-0.14602219
252	0x3d8bb1f8	0.06821054
253	0x3e7b2783	0.24526791
254	0x3e01f92d	0.1269271
255	0x3d38f89f	0.04515898

lstm.weight_hh_l1 f4 [256, 64]
0	0xbe32172a	-0.17391649
1	0xbdde4dcf	-0.108546846
2	0xbe1c2d8f	-0.15251754
3	0x3e9846f8	0.29741645
4	0x3dbc4568	0.09192926
5	0xbd2539df	-0.040338393
6	0x3dd4e188	0.10394579
7	0xbe40ae32	-0.1881645
8	0xbe800ee6	-0.25011367
9	0xbd8b008a	-0.06787212
10	0x3bd34147	0.0064469907
11	0x3e3374e6	0.17525062
12	0x3d84a846	0.06477408
13	0xbe1d209d	-0.15344472
14	0x3d03a92f	0.032143768
15	0xbc99cc3f	-0.01877415
16	0x3d6dcbb9	0.058055613
17	0x3c1bdef6	0.009513607
18	0x3dcf612c	0.10125956
19	0x3e4007e0	0.18753004
20	0x3d2c8cf9	0.04212663
21	0x3e8599eb	0.26093993
22	0xbe669e48	-0.22521317
23	0x3e50aa0c	0.20377368
24	0x3bf193cb	0.0073723546
25	0x3da40940	0.08009577
26	0xbe8a4c0d	-0.27011147
27	0x3e414fe7	0.18878137
28	0x3ebd760a	0.3700412
29	0xbd0e7e8e	-0.03478866
30	0x3d29ab7b	0.041423302
31	0xbe0bbb22	-0.13645604
32	0x3e229676	0.15877709
33	0x3e7f84c1	0.24952985
34	0xbe332a80	-0.17496681
35	0xbd8147a2	-0.06312491
36	0x3e36f6cf	0.17867588
37	0xbdb22c21	-0.08699823
38	0x3ebf99ef	0.3742213
39	0xbe2404c9	-0.1601745
40	0xbeb27681	-0.34856036
41	0xbdc45e7e	-0.095883355
42	0x3e56f1c6	0.20990667
43	0x3d92d098	0.07168692
44	0xbc5f334c	-0.01362307
45	0x3db239a6	0.08702402
46	0x3ebd16aa	0.36931354
47	0x3da7301a	0.081634715
48	0xbd7e47e9	-0.062080298
49	0xbdd973f4	-0.106178194
50	0xbc69ed4f	-0.01427777
51	0x3df4116b	0.11917385
52	0x3e01ee62	0.12688592
53	0xbe07f0c9	-0.13275446
54	0xbeb7a890	-0.3587079
55	0xbcc6d105	-0.02426959
56	0xbb3d1848	-0.0028853584
57	0x3da8b787	0.0823813
58	0xbd998ed5	-0.07497946
59	0xbe73c1e8	-0.23804438
60	0xbe1ce437	-0.15321432
61	0xbd5e8e63	-0.05433501
62	0x3e720441	0.23634435
63	0x3e4b99d5	0.19882901
64	0x3d9559cc	0.07292518
65	0x3e28f04d	0.16497917
66	0x3d5f760e	0.054555945
67	0x3deaf7eb	0.11473068
68	0xbe225757	-0.1585363
69	0xbdb7b4df	-0.08970045
70	0xbe322537	-0.17397009
71	0x3dcd5a77	0.100270204
72	0xbd3adb62	-0.045619376
73	0x3a865976	0.001025005
74	0x39dfc7ae	0.00042682647
75	0xbdc3d69f	-0.0956242
76	0xbd1ca51c	-0.038243398
77	0xbdf2c4fe	-0.118539795
78	0xbc89ab9a	-0.016805459
79	0xbde0c8fe	-0.10975836
80	0x3d634292	0.05548341
81	0x3ce8ce1a	0.02841859
82	0xba048ed2	-0.0005056682
83	0xbc1f80c6	-0.009735292
84	0x3e0d2fee	0.13787815
85	0x3e710742	0.23537925
86	0x3d106ad1	0.035258118
87	0xbcf80450	-0.030275494
88	0xbc9d50ca	-0.019203562
89	0x3cfdfce5	0.031004379
90	0x3d8c0882	0.0683756
91	0xbdfdd4c5	-0.12394098
92	0xbc4aaf6b	-0.012370924
93	0x3b94f095	0.004545281
94	0xbd8c22b6	-0.06842558
95	0x3e134246	0.1438075
96	0xbb8e48de	-0.0043421825
97	0x3d95ea01	0.07320023
98	0x3cba132a	0.022714216
99	0xbd6add87	-0.05734017
100	0xbe006b08	-0.12540829
101	0xbc642a6e	-0.013926132
102	0xbe81c6b6	-0.25346917
103	0x3d47b6e7	0.048758414
104	0x3d98a3d4	0.07453123
105	0x3dfa5af0	0.12224376
106	0x3e8b939a	0.2726105
107	0xbdf59af5	-0.11992446
108	0xbd0e3147	-0.034714963
109	0xbe3a5ba0	-0.18199015
110	0xbcf9a581	-0.030474426
111	0x3e0aeea0	0.1356759
112	0x3b179452	0.0023129177
113	0xbb0acf22	-0.002118059
114	0xbe638cad	-0.22221632
115	0xbc408ada	-0.011751855
116	0xbd899ae2	-0.06718995
117	0xbc8aa560	-0.01692456
118	0x3e0ec532	0.13942412
119	0xbe055596	-0.1302093
120	0x3e380bfc	0.17973322
121	0x3ccf3e34	0.025298215
122	0x3dff7593	0.124735974
123	0xbdfabc90	-0.12242997
124	0x3e00a22e	0.12561867
125	0xbd5a346e	-0.053272657
126	0x3dd5b290	0.10434449
127	0xbd32e54c	-0.043675706
128	0x3e46b011	0.19403102
129	0xbe104e15	-0.14092286
130	0x3b5ef156	0.003401836
131	0x3dd4bcf6	0.10387604
132	0x3d86d47b	0.06583496
133	0xbbb15353	-0.0054115443
134	0xbc1c8fa4	-0.009555731
135	0x3e5b8b34	0.2143982
136	0xbe61fed6	-0.22069868
137	0x3cf3c2e8	0.029756024
138	0xbd8f4f7e	-0.06997584
139	0x3d6a8bb5	0.05726214
140	0xbd078d94	-0.033094004
141	0x3e95c097	0.29248497
142	0x3e8b9b4a	0.27266914
143	0x3ea3e7a2	0.3201266
144	0x3ddbc45a	0.107308105
145	0x3e0811df	0.13288067
146	0x3deda738	0.1160416
147	0x3e0ef4b7	0.13960539
148	0xbd55a717	-0.052161302
149	0xbe09f84f	-0.13473628
150	0x3c6361a7	0.013878263
151	0xbe22bc2a	-0.15892091
152	0xbddcd981	-0.10783673
153	0x3ec019ac	0.37519586
154	0x3e39a231	0.18128277
155	0xbe06ed37	-0.13176428
156	0xbc7073fd	-0.014676091
157	0xbdbb1480	-0.091347694
158	0x3e79491f	0.243443
159	0xbd953bcd	-0.07286797
160	0x3d963022	0.07333399
161	0x3a619a29	0.00086060405
162	0x3e2fed96	0.17180476
163	0xbd8d7790	-0.0690757
164	0x3e1797c2	0.14803985
165	0x3d73f712	0.059561796
166	0xbdacee46	-0.084438846
167	0xbe214270	-0.15748
168	0x3db3a70c	0.08772096
169	0xbc2ce79b	-0.010553266
170	0x3e6ee90e	0.23331091
171	0x3e503536	0.20332798
172	0xbd95fce2	-0.07323624
173	0x3e4ee742	0.20205405
174	0xbe309a57	-0.17246376
175	0x3c14fc46	0.00909335
176	0xbe013684	-0.12618452
177	0x3d1a5908	0.037682563
178	0x3ed18379	0.40920618
179	0x3ea63c20	0.32467747
180	0xbc8eac11	-0.017416032
181	0x3cc50e7c	0.024054758
182	0x3d3abee5	0.045592207
183	0x3e5a06c9	0.21291651
184	0x3c89636a	0.016771037
185	0xbebfe4b8	-0.37479186
186	0x3d42ab19	0.047526453
187	0x3df987d6	0.12184112
188	0xbe352393	-0.17689352
189	0xbdf1fea5	-0.11816148
190	0xbce6eabb	-0.0281881
191	0x3e3b06f9	0.18264379
192	0x3e81f30b	0.2538074
193	0xbe842040	-0.25805855
194	0x3e0eae8f	0.13933776
195	0x3de9136a	0.11380656
196	0xbb5ec11b	-0.0033989612
197	0xbe9b4d73	-0.30332527
198	0x3db4e19d	0.08832095
199	0x3eacb6cf	0.33733222
200	0x3dcc9935	0.099901594
201	0xbdfcafc1	-0.1233821
202	0xbe4cda78	-0.20005214
203	0x3da28fba	0.0793757
204	0xbe453ee6	-0.19262275
205	0xbaf75c77	-0.0018872161
206	0x3f263107	0.6491856
207	0x3ec8699b	0.3914307
208	0xbe858d19	-0.2608421
209	0x3e9f9c1c	0.3117379
210	0xbb0929b8	-0.0020929407
211	0xbe8ec4a5	-0.27884403
212	0x3dd20964	0.10255697
213	0xbd3c8353	-0.046023678
214	0x3e3ca0f2	0.18420771
215	0xbbc65d4c	-0.0060536023
216	0xbe0d4764	-0.13796765
217	0x3e5266de	0.20547053
218	0xbe1544fa	-0.14577094
219	0xbe71e810	-0.23623681
220	0xbdd3057f	-0.10303783
221	0x3d02bbfb	0.031917553
222	0x3d889a74	0.066700846
223	0xbe10811f	-0.14111756
224	0x3ed1eaaf	0.40999362
225	0xbdd15d1a	-0.10222836
226	0x3eb521c1	0.35377315
227	0xbde201ce	-0.110355005
228	0xbe01eb0a	-0.12687317
229	0xbd7d7a0c	-0.06188397
230	0x3e62429a	0.22095719
231	0xbecb78b7	-0.39740536
232	0xbcc8355f	-0.024439512
233	0xbe1766ae	-0.14785263
234	0xbda19dfa	-0.0789146
235	0x3e888083	0.26660547
236	0xbeb0b96e	-0.34516472
237	0x3d84c8a0	0.06483579
238	0x3eb6d600	0.35710144
239	0x3de73a0c	0.112903684
240	0x3e944ea5	0.2896625
241	0xbc9d8668	-0.019229129
242	0x3e8a29a4	0.26984894
243	0xbd1aa279	-0.037752602
244	0xbd3fa461	-0.046787623
245	0xbd97356e	-0.07383238
246	0xbdee028a	-0.11621578
247	0x3d09e9ae	0.03367012
248	0x3da6eedb	0.08151027
249	0xbe6edd3f	-0.23326586
250	0xbe20be54	-0.15697604
251	0x3d97848f	0.073983304
252	0xbec1e37e	-0.37868875
253	0xbe319dda	-0.17345372
254	0xbe60654b	-0.2191364
255	0xbd0c780b	-0.03429417

lstm.bias_ih_l1 f4 [256]
0	0xbe05dae8	-0.13071787
1	0xbdbb56d5	-0.09147421
2	0x3ced30e5	0.028953979
3	0x3903b6b6	0.00012561199
4	0xbdbf94e1	-0.09354568
5	0xbe588825	-0.21145685
6	0x3c80d849	0.015728133
7	0xbe5d8fb9	-0.21636857
8	0x3bbd0f1a	0.0057696225
9	0xbe14d213	-0.14533262
10	0xbdfd3ad6	-0.12364738
11	0x3df3f9f2	0.11912908
12	0xbe40f30d	-0.18842717
13	0xbdcab70b	-0.09898194
14	0xbd5e338c	-0.054248378
15	0xbd9dfb73	-0.07713976
16	0x3de14f73	0.11001482
17	0xbd044428	-0.03229156
18	0xbdd7e92c	-0.10542521
19	0xbd364e45	-0.044508237
20	0xbd325fce	-0.043548398
21	0xbe62948b	-0.22126977
22	0x3d308146	0.043092035
23	0xbdc98183	-0.098391555
24	0xbd7165d2	-0.058934994
25	0xbdaaee44	-0.08346227
26	0xbddb7a3a	-0.10716672
27	0x3d882698	0.06647986
28	0xbe117817	-0.14205967
29	0x3dc330b3	0.09530773
30	0xbd9e7f67	-0.07739144
31	0xbcdc10c1	-0.026863458
32	0x3b24897f	0.0025106368
33	0xbd4c60ca	-0.049896993
34	0xbd0745bf	-0.0330255
35	0xbe000232	-0.12500837
36	0xbdd86cf0	-0.10567653
37	0xbc1b3dc0	-0.009475172
38	0xbe117ba1	-0.14207317
39	0xbe210fc3	-0.15728669
40	0x3cbae7e3	0.02281565
41	0xbdf4bcd0	-0.119500756
42	0xbc0c130b	-0.008549462
43	0xbe8267f1	-0.25469926
44	0xbe0d095f	-0.13773106
45	0xbe2b782c	-0.1674506
46	0xbe13d584	-0.14436918
47	0xbdc03e8f	-0.09386932
48	0xbcc35ddb	-0.023848465
49	0xbe3c96bb	-0.18416874
50	0xbdc63441	-0.096779354
51	0x3a14f167	0.00056817237
52	0xbdb25312	-0.08707251
53	0xbec1f505	-0.37882248
54	0xbe0dabbc	-0.13835043
55	0xbe42500b	-0.18975846
56	0xbe0e821a	-0.13916817
57	0xbdb0cd97	-0.08632963
58	0xbdd58d45	-0.10427336
59	0x3dbf5922	0.093431726
60	0x3d925d5b	0.071467124
61	0xbd0e8d45	-0.034802694
62	0xbdbf32cd	-0.09335861
63	0xbe0b1744	-0.13583094
64	0xbde0e83a	-0.10981794
65	0xbe1db64b	-0.1540157
66	0xbcb53e81	-0.02212453
67	0xbe7120b3	-0.2354763
68	0xbd68560b	-0.056722682
69	0xbdc15e4d	-0.094418146
70	0xbdefa2f1	-0.117010005
71	0xbe22d46c	-0.15901345
72	0xbe458970	-0.1929071
73	0xbd1ff657	-0.039053287
74	0xbe6e39dc	-0.23264259
75	0xbebb4c19	-0.36581495
76	0xbd4b17a5	-0.049583096
77	0xbdcf041e	-0.10108207
78	0x3c01993e	0.007910071
79	0xbe1f4348	-0.1555301
80	0xbebe35d4	-0.37150443
81	0xbe855a9e	-0.26045698
82	0xbdb2a829	-0.0872348
83	0xbd9cf566	-0.076639935
84	0xbebef822	-0.37298685
85	0xbe0e3bc8	-0.13889992
86	0xbe2a33d6	-0.16621336
87	0xbdfc7f7e	-0.12329005
88	0xbdbd0897	-0.09230154
89	0xbc3fa357	-0.011696658
90	0xbe8fa269	-0.28053597
91	0xbe2a32ac	-0.16620892
92	0xbe03be31	-0.12865521
93	0xbc608d26	-0.013705527
94	0xbe213638	-0.15743339
95	0xbe055885	-0.13022049
96	0xbe73c36e	-0.2380502
97	0x3cde39ec	0.027127229
98	0xbe193c50	-0.14964414
99	0xbc707da0	-0.014678389
100	0xbdd937fe	-0.10606383
101	0xbe16e593	-0.14736013
102	0xbe921d07	-0.2853777
103	0xbe5d6470	-0.21620345
104	0xbdc320d1	-0.095277436
105	0xbe0f296c	-0.13980645
106	0xbdce8151	-0.10083259
107	0xbe87743e	-0.26455873
108	0xbe1bc4e2	-0.15211824
109	0xbeb876f2	-0.36028248
110	0xbe462b95	-0.19352563
111	0xbe64865c	-0.22316879
112	0xbd3d87c0	-0.04627204
113	0xbd8147ae	-0.063125
114	0xbdddf0a7	-0.108369164
115	0xbe8e2306	-0.27761096
116	0xbe82187e	-0.2540931
117	0xbe8a50e0	-0.27014828
118	0xbd7405f0	-0.059575975
119	0xbe2e6840	-0.17031956
120	0xbe50f4a0	-0.20405817
121	0xbbbe0fd6	-0.0058002276
122	0xbe1ac1fc	-0.15113062
123	0xbdaa24ba	-0.08307786
124	0x3d927498	0.07151145
125	0xbe93a43b	-0.28836235
126	0xbe219215	-0.15778382
127	0xbcb9c525	-0.022677014
128	0x3dcd0cf9	0.1001224
129	0x3cec6c2a	0.02886017
130	0x3d05aa5a	0.032633163
131	0xbdf31e12	-0.1187097
132	0x3db1f8aa	0.08690007
133	0x3cd8563c	0.026408307
134	0x3c0bee84	0.008540753
135	0x3cee09d8	0.029057428
136	0x3bc08f41	0.005876452
137	0x3dbf1c88	0.09331614
138	0xbd23a7a2	-0.03995479
139	0xbdd3040a	-0.10303505
140	0x3c66818d	0.014068973
141	0x3d529ca4	0.051418915
142	0xbcf726a9	-0.030169802
143	0xbd8e7a82	-0.0695696
144	0x3d5717f5	0.05251308
145	0xbd0fa0ce	-0.035065465
146	0xbcbdf8a0	-0.023189843
147	0x3d482da2	0.048871644
148	0x3da4677d	0.08027551
149	0xbdbde044	-0.09271291
150	0x3dfbdc0d	0.12297831
151	0xbc85e1df	-0.016343055
152	0xbce745ca	-0.02823152
153	0x3d2f7929	0.042840157
154	0xbc9f46ee	-0.019443002
155	0xbd7dcfb3	-0.061965656
156	0x3c89e29f	0.016831694
157	0x3d76bb79	0.06023738
158	0x3d26f095	0.04075678
159	0x3dcd5ed8	0.10027856
160	0x3dc9704f	0.09835874
161	0xbd09e627	-0.033666756
162	0x3da29f75	0.0794057
163	0x3dcf3dfb	0.10119244
164	0x3d299689	0.041403327
165	0x3d009d63	0.031400096
166	0xbd788366	-0.060672186
167	0x3d84cdc0	0.06484556
168	0xbc978d7a	-0.018500078
169	0x3d26fd61	0.040768985
170	0x3d4be325	0.04977717
171	0xbd9efa81	-0.077626236
172	0x3dde1b44	0.10845044
173	0x3d8164b2	0.06318034
174	0xbd7e4e09	-0.06208614
175	0xbcb20fc7	-0.021736039
176	0x3dc12ebd	0.09432743
177	0xbd44d15f	-0.048051234
178	0xbcc86695	-0.024462977
179	0xbd7c96db	-0.061667304
180	0x3d229dee	0.039701395
181	0x3c87c935	0.016575435
182	0x3c686fb4	0.014186788
183	0x3dcc28b5	0.09968702
184	0xbda5c196	-0.08093564
185	0x3d0302ad	0.031984974
186	0xbcf7a2f4	-0.03022907
187	0x3d4bd036	0.049759112
188	0xbc899ce7	-0.01679845
189	0xbd884366	-0.0665348
190	0xbca5ff56	-0.020263355
191	0xbdaec4fa	-0.08533664
192	0xbdf5114f	-0.11966192
193	0xbdd63acd	-0.10460434
194	0xbdf0c172	-0.11755647
195	0xbd1e249e	-0.03860914
196	0xbd7f1b1a	-0.062281705
197	0xbe142d89	-0.14470495
198	0xbde1dfda	-0.110290244
199	0xbc9991c4	-0.018746264
200	0xbdf3df19	-0.11907787
201	0xbd4a76ff	-0.04942989
202	0xbd4e1009	-0.05030826
203	0xbbf1d3c1	-0.0073799794
204	0xbe262422	-0.16224721
205	0xbe213e5b	-0.15746443
206	0xbdac4510	-0.0841161
207	0xbd25be53	-0.04046471
208	0x3d200c29	0.039074097
209	0xbdc9c181	-0.09851361
210	0xbda9f989	-0.08299548
211	0xbe12a464	-0.14320523
212	0x3e040343	0.12891869
213	0xbe14025f	-0.1445403
214	0xbcc8eeed	-0.024527991
215	0x3de4acdb	0.11165782
216	0xbe5880c6	-0.21142873
217	0xbe073a25	-0.13205774
218	0xbd516a8b	-0.051126998
219	0xbce20c3a	-0.02759372
220	0xbd844f30	-0.06460416
221	0xbdc97b24	-0.0983794
222	0xbcc713e4	-0.024301477
223	0xbab2db9f	-0.0013645774
224	0xbe66248e	-0.22474882
225	0xbca4a0b9	-0.02009617
226	0xbd16c2c9	-0.036806855
227	0xbdac7fc3	-0.08422806
228	0xbd3518ca	-0.044213094
229	0xbdcaf238	-0.09909481
230	0xbd5d28c3	-0.05399395
231	0xbd06fa83	-0.03295375
232	0xbd8c517b	-0.06851479
233	0xbced7c3d	-0.028989905
234	0xbdeea6ca	-0.11652906
235	0xbe8191f2	-0.2530666
236	0xbd9a2206	-0.07526021
237	0xbe532900	-0.20621109
238	0xbd0fdda3	-0.03512348
239	0xbd7ccc88	-0.061718494
240	0xbcc057c8	-0.023479357
241	0xbd4eb28b	-0.05046324
242	0xbe11ab36	-0.14225468
243	0x3e063b90	0.13108659
244	0xbd81d345	-0.063391246
245	0xbe886125	-0.26636615
246	0x3daec67d	0.085339524
247	0xbe0e47f7	-0.1389464
248	0xbe1b0ca0	-0.15141535
249	0xbd93c78e	-0.072157964
250	0xbd2d323c	-0.042284235
251	0xbdb588c0	-0.088639736
252	0x3d320b71	0.043467943
253	0x3cb97f66	0.022643756
254	0xbe53478a	-0.20632759
255	0xbe168946	-0.14700803
