Processor/models_multi_file/4_layers_64hd_0.3do_multi_file_model.pkl (torch, 494631 bytes, 22 tensors)

lstm.weight_ih_l0 f4 [256, 17]
000000 af 68 38 3e 5b 8d d5 3c dc 84 ca 3d 02 c3 1e 3e
       0.18008684 0.02606838 0.09888622 0.15504077
000010 63 b6 12 3d 62 0c 51 be 45 5a b1 3e af ed c3 3d
       0.03581847 -0.2041488 0.34639183 0.09566819
000020 32 72 a1 3e 9e 70 da 3d ca 7a 72 be 28 96 e2 3d
       0.31532437 0.10666011 -0.23679653 0.11063796
000030 cf e1 f0 3d df ac ab ba 74 03 34 bc 72 f3 fb 3d
       0.117618196 -0.0013097784 -0.010987151 0.12302293
000040 53 c5 2e bf 3f c8 cf be 13 be f2 be e7 66 0a bf
       -0.6826984 -0.40582463 -0.4741064 -0.54063267
000050 86 84 f2 be 70 a2 bd bc 4b b3 0a be 01 cd 84 be
       -0.47366732 -0.023148745 -0.13544957 -0.25937656
000060 9f f3 73 3e 36 42 8f be 92 f7 ab 3e fe a7 ce 3d
       0.23823403 -0.27980202 0.3358732 0.10090636
000070 e7 7d a3 be 95 92 a3 be a0 f6 2b 3b 87 ca 07 be
       -0.31931993 -0.3194777 0.002623953 -0.13260852
000080 d6 f5 98 3e e5 f7 9b 3c 60 8b 56 3e 97 90 ca 3d
       0.29875058 0.019039104 0.20951605 0.098908596
000090 28 d0 89 3e 46 2a 1a 3e 57 54 73 bd ac cf 1d bd
       0.26916623 0.15055189 -0.059406605 -0.03852813
0000a0 12 8b a5 bb 60 90 22 3e 5a 76 0a 3f 02 58 db 3c
       -0.005051979 0.15875387 0.5408684 0.026775364
0000b0 56 01 cf be 84 e1 49 3e 9f 58 06 3e d4 52 c3 bd
       -0.40430707 0.19714934 0.13119744 -0.095372826
0000c0 c7 98 af be 2f f1 b5 3e fb 71 08 be c8 51 97 bd
       -0.34296247 0.3553557 -0.1332473 -0.073886454
0000d0 bf ea 33 bd f8 60 a2 bd 35 b2 8d 3d 6a 59 07 3e
       -0.043925043 -0.079286516 0.06918756 0.13217703
0000e0 3e b3 51 3d 75 95 19 bf b0 0f 8f 3d 9f 43 bc bd
       0.05119633 -0.5999368 0.06985414 -0.09192585
0000f0 05 fb 9e bc 42 63 96 3e 8e 34 5e 3d 9f 7d 80 bd
       -0.019406805 0.29372603 0.05424934 -0.0627396
000100 67 d4 93 bb 2d c4 98 3c e1 32 1c 3e 01 fa 28 bf
       -0.0045114043 0.018648231 0.15253784 -0.66006476
000110 e5 9b bd 3b 7f 8a b0 bd 2d 7b cf 3c ed fb f0 3d
       0.0057864063 -0.08620166 0.02532729 0.11766801
000120 77 e6 ba 3d 9a ca 5f 3e dc 0b 50 bd b0 b9 12 be
       0.09125989 0.2185463 -0.05079256 -0.14328647
000130 81 de d9 be ab 96 0e 3d 9b 0f 12 3d f7 fc c1 bd
       -0.4255257 0.034811657 0.035659414 -0.09472077
000140 bc dd 58 3d f4 f7 0b be 58 1f 47 bd ff 9b 85 3e
       0.052945837 -0.13668805 -0.048613876 0.26095578
000150 63 51 c4 3e 4c 84 e7 bc 76 8b 39 bd 46 70 09 be
       0.38343343 -0.028261326 -0.045299016 -0.13421735
000160 05 84 a6 3d d8 4c 01 be 8c 71 35 be 6c b6 28 3e
       0.081306495 -0.1262697 -0.17719096 0.16475838
000170 f0 32 08 bf 65 d1 de bd 6c 0e 92 3c c6 e2 ce 3d
       -0.53202724 -0.108797826 0.017829143 0.10101847
000180 40 d6 cf 3d 01 5e 8f bd 35 38 6d 3e 4d ce a0 3e
       0.10148287 -0.07000352 0.23165973 0.31407395
000190 c4 da b1 bd c7 b2 85 3e d1 74 13 bd 5a a3 f1 3c
       -0.08684304 0.2611296 -0.036000077 0.029496837
0001a0 62 2f 63 3d 94 60 95 bd 03 ba e4 be 4c ee 01 bf
       0.05546511 -0.072938114 -0.44673166 -0.5075424
0001b0 54 b6 ef bd 63 a5 8e 3e 29 76 2f bf 12 18 f5 be
       -0.11704698 0.27860555 -0.68539673 -0.47869927
0001c0 6c e8 b4 be 00 1e 24 bd 2c ed 85 bd 77 fe 15 bf
       -0.35333574 -0.040067673 -0.065393776 -0.5859141
0001d0 65 a1 30 be f8 63 95 3e 8e c0 1a 3e 26 f4 c5 bc
       -0.17249067 0.29177833 0.15112516 -0.02416427
0001e0 36 08 86 bc 18 b2 cc 3d f2 7f ed 3d 69 fe 90 be
       -0.016361337 0.09994906 0.11596669 -0.283191
0001f0 c6 30 ae be 50 0d b3 3e 87 19 72 be e4 16 a2 bd
       -0.34021586 0.34971094 -0.2364255 -0.07914522
000200 93 4b 6b be d8 f9 f4 3d fd 5b a3 3d 71 f6 9d 3d
       -0.22978048 0.119617164 0.0797653 0.077130206
000210 14 79 a3 bc 02 0c 28 be b6 1a 11 bf 74 eb 88 3e
       -0.019955195 -0.1641083 -0.5668138 0.26742136
000220 77 80 3b be 44 cb c0 be 1b 7d 83 be 01 31 cb be
       -0.18310724 -0.3765508 -0.25681385 -0.39685825
000230 77 ce aa be 24 ac 7d be ce be a8 3e 87 6e 4c 3e
       -0.33360645 -0.24772698 0.32958072 0.19964038
000240 d7 fb 2f 3e 18 9f 9b be 06 de 9c bd 37 d1 c8 be
       0.17185913 -0.30394816 -0.07659535 -0.39222118
000250 da 95 c3 be 3d 6c aa be c5 e3 76 be 12 88 2c 3e
       -0.38200265 -0.33285704 -0.24110325 0.16848782
000260 5d 82 a4 bd 1b 79 a9 bd 1b b9 1e be c3 0f ea bd
       -0.08032677 -0.08275052 -0.155003 -0.114287876
000270 32 7b 89 3d db 5f 95 be 87 5f ab be d0 ef 00 3f
       0.06712951 -0.29174694 -0.3347132 0.50365925
000280 8f f2 51 bf 3d e2 5e 3e 9e bb a4 3e 35 dd 48 3e
       -0.8201074 0.2176599 0.3217439 0.19615634
000290 24 8b 23 bd 95 e9 f0 bd e3 ba 2f bd 3b 41 19 3e
       -0.039927617 -0.11763302 -0.04290284 0.1496629
0002a0 4a a2 86 3d 7c c4 29 3c 86 d6 55 be e5 35 96 be
       0.06573923 0.010361787 -0.20882615 -0.29337993
0002b0 4d 91 4d be 78 34 cd be 38 ec 37 bc b1 87 a5 3d
       -0.20074959 -0.40079093 -0.0112257525 0.08082522
0002c0 00 02 4e be 4f 3a 03 bd 80 b2 bc bd 42 c3 b0 3e
       -0.2011795 -0.03203803 -0.09213734 0.3452397
0002d0 38 8e c2 bc 06 d7 aa be cc 74 d8 be 3d fa a0 bc
       -0.023749456 -0.33367175 -0.4227661 -0.019650573
0002e0 55 bf c8 bd 0f eb 38 3e ef e9 4d 3e e5 21 61 3e
       -0.09802119 0.18058418 0.2010877 0.21985586
0002f0 2e 35 9f 3e 55 04 a6 3e df 6e 46 3e a3 c7 fa bc
       0.3109526 0.3242518 0.19378231 -0.030612772
000300 b3 d4 ba bc a9 a9 46 be 52 a1 b4 3e e2 3f ee 3d
       -0.022806501 -0.19400658 0.35279328 0.116332784
000310 91 c9 e5 3b bf 6f 37 3e b7 41 8e 3e 90 ed a3 3e
       0.007012554 0.17913722 0.2778451 0.32017183
000320 7f 27 03 3e f1 2b 1e 3d 23 79 ad 3e f8 6b 91 bd
       0.12808035 0.038616125 0.33881482 -0.071006715
000330 47 67 35 be c9 3a e6 bd d6 4a 93 be 68 f1 0e be
       -0.17715178 -0.11241681 -0.28768033 -0.13959277
000340 c9 97 0b bd a4 5e 74 be 08 1a 15 bf 06 94 d7 3c
       -0.0340803 -0.23864228 -0.58242846 0.0263157
000350 ea 13 93 be 6b 7b 87 3e f8 42 a6 3d 32 aa 1c be
       -0.2872613 0.26461348 0.08118242 -0.152993
000360 65 d6 84 be 67 ca 1b 3e 2d e7 2a bd 60 5a 47 3e
       -0.2594482 0.15213929 -0.041724373 0.19468069
000370 02 60 7f 3e e5 ce 8e be 16 69 97 be fe 81 a0 be
       0.24938968 -0.27892223 -0.29572362 -0.31349176
000380 26 09 41 be 89 77 58 3e 4e a3 7d 3e 65 21 d2 bd
       -0.18851146 0.21139349 0.24769327 -0.10260276
000390 17 51 10 3e 13 06 c7 3e 99 65 5e bd a9 4b ca 3d
       0.14093433 0.38871822 -0.05429611 0.09877712
0003a0 27 4f b5 be 4a ba f3 bd d7 ed 4b be 01 a0 9b 3d
       -0.3541195 -0.11900766 -0.19914947 0.07598878
0003b0 1a c5 83 be 8d 1f 25 be be 7c cc 3d 86 02 e2 bd
       -0.25736314 -0.16125317 0.0998473 -0.110356376
0003c0 85 e2 3a bc b3 97 e8 3c a0 b5 d3 be e7 49 18 bf
       -0.0114065455 0.028392648 -0.41349506 -0.59487766
0003d0 33 e2 ee 3d e5 ea 67 bf e7 bc 27 3d 72 c2 f4 3d
       0.11664238 -0.90592796 0.040951636 0.1195115
0003e0 6b c6 0f be 46 b8 e2 bc c5 ee c3 bd 64 e5 ce 3d
       -0.14040534 -0.027675759 -0.09567026 0.101023465
0003f0 ad cc 6c 3d f6 36 45 3d 9e 8a be 3d a0 f5 15 3d
       0.05781238 0.048148118 0.09303783 0.0366112

lstm.weight_hh_l0 f4 [256, 64]
000000 02 a0 0b be 92 b7 b8 be 2d f2 f7 3d 31 0e 77 3d
       -0.13635257 -0.36077553 0.12106738 0.06031627
000010 55 a9 19 be 83 b0 04 3f de 12 a6 3e 1c de 4a 3d
       -0.15006001 0.51831836 0.3243627 0.049528226
000020 42 98 e9 3e 44 c7 02 3f 58 b0 28 be a5 f8 23 3e
       0.45623976 0.51085305 -0.1647352 0.16012819
000030 6e da 6e 3e 09 c0 08 3c b7 ab 07 3f 84 ce f4 3e
       0.23325512 0.008346566 0.5299639 0.4781381
000040 f5 9a 14 be 81 18 a0 bd b8 91 58 3e 4d 61 be be
       -0.14512236 -0.07817174 0.21149337 -0.3718361
000050 1b 79 af be 0d 5a 07 3f bc ff 91 bb ca 56 89 b9
       -0.34272084 0.5287178 -0.0044555347 -0.0002619534
000060 75 7b 47 be 9b 09 05 bf f4 cf 76 bb 90 6b a2 3e
       -0.19480689 -0.5196778 -0.003766057 0.3172269
000070 1a 3e a2 be 10 86 3a be 6d 1c 91 be a2 cb ff 3e
       -0.31688005 -0.18215203 -0.28342 0.49960047
000080 e7 85 69 3f a7 e3 e1 3c 57 2d b1 be d1 d7 0b 3f
       0.91219944 0.027574373 -0.34604904 0.54626185
000090 11 1f bc be 04 d5 11 be 6f 14 c3 3d 89 fb 29 bf
       -0.36742452 -0.14241415 0.09525382 -0.6639944
0000a0 ad de 12 3f 24 18 a1 3d 52 b0 d1 be aa 40 02 be
       0.57371026 0.078659326 -0.40954834 -0.1271998
0000b0 bc 54 89 3f df 53 62 be 34 26 f6 be 6d 26 00 3d
       1.0728984 -0.22102307 -0.48076022 0.031286646
0000c0 3a 67 33 be bd 47 78 be f1 92 de 3e 8c db 2c be
       -0.17519847 -0.24246116 0.43471482 -0.16880625
0000d0 73 f7 2a 3d 53 5d a1 3e 1b 26 f3 be 57 7f 9a bd
       0.041739892 0.31516513 -0.4749001 -0.075438194
0000e0 7a 39 80 3e f9 51 81 3d 8f b9 79 3e c1 72 cb 3d
       0.2504385 0.06314463 0.24387191 0.09933997
0000f0 4a 6e 1c be 76 e5 e8 be 7f 5f c6 3e bf 02 aa 3e
       -0.15276447 -0.45487565 0.38744733 0.3320522
000100 d2 08 c4 bd 2c 2d 2d be fd 1d db be d3 f7 6b be
       -0.09571995 -0.16911763 -0.42796317 -0.23043756
000110 d4 db 9d 3d d0 22 77 be 2f 2a 00 bf 05 85 c7 bd
       0.077079445 -0.24134374 -0.5006437 -0.09742168
000120 82 96 6a be 6b 55 60 3e ea 93 61 be 18 75 8b 3d
       -0.22908977 0.21907584 -0.22029081 0.06809443
000130 51 66 38 3e a2 86 eb bd 80 31 1a 3e bc 69 24 be
       0.1800778 -0.115002885 0.15057945 -0.1605596
000140 42 ac 4e 3e 4d 74 4e 3b 22 e1 53 be f7 18 19 3c
       0.20182899 0.0031502426 -0.2069135 0.009344331
000150 9c 11 1c be 65 5c 5c 3e eb c6 a0 be c5 fb 92 be
       -0.15241092 0.2151962 -0.31401762 -0.2870771
000160 6d d1 26 3d 44 01 e1 3d c1 2f 1d 3e 89 df ab bd
       0.040727068 0.109865695 0.15350248 -0.08392245
000170 92 08 b8 bd e1 2c 19 be bc a0 7d bd cc 3a 34 be
       -0.0898601 -0.14958526 -0.061920866 -0.17600554
000180 c3 cc 4a be 39 28 9e bc dd 22 9e bd ea 23 50 3e
       -0.19804673 -0.019306289 -0.077214934 0.203262
000190 7b cc e7 bd a5 f5 51 be c4 a8 3d 3d d2 63 f9 be
       -0.113182984 -0.20503862 0.046303526 -0.4870897
0001a0 1f 97 c1 3c d1 18 b5 3e 99 89 5f 3e 18 46 3d 3c
       0.02363163 0.35370496 0.21829833 0.011552356
0001b0 68 3e 82 3e 5e f1 88 bc b4 7b 9c be 7f d2 4b 3e
       0.25438237 -0.016716655 -0.30563128 0.19904517
0001c0 c9 9a cf 3d a0 e6 96 bd 32 91 af 3e d7 f1 99 3e
       0.10136945 -0.07368207 0.34290463 0.30067322
0001d0 a4 ec 04 3e 03 7c f0 bd 5a b2 b4 bd bc 50 dd 3d
       0.12980896 -0.11742403 -0.0882308 0.108064145
0001e0 96 e1 86 3e b1 5a 2b 3e bb 7a e2 3d 36 6f a9 bd
       0.26343983 0.16733815 0.11058565 -0.08273165
0001f0 10 14 9a be 8a c9 84 be 40 6c 04 be 36 71 7a 3e
       -0.3009343 -0.25935012 -0.12931919 0.24457249
000200 73 99 36 3e e1 d2 ad 3d f8 3e cb 3c d3 64 d6 3e
       0.17831974 0.084874876 0.0248103 0.41873798
000210 fb d8 6d be eb e0 03 bf 41 f9 9f be fe 04 8d be
       -0.23227303 -0.5151507 -0.31244853 -0.2754287
000220 ca c0 1c be 58 a1 18 3e 03 3f 5b 3d 50 ee b3 be
       -0.15307918 0.14905298 0.05352689 -0.35142756
000230 6a ae e0 bd ef c2 e7 be bc 82 81 be 2b fd ec 3e
       -0.10970767 -0.4526591 -0.25295055 0.46286902
000240 53 00 19 3e ba 08 99 be 4a 1c a3 be 07 2e 3b be
       0.1494153 -0.2988947 -0.3185752 -0.18279277
000250 5e db 17 3e 1d be bd 3e 0c d1 4c 3e 81 e3 c2 bd
       0.14829776 0.37059107 0.2000162 -0.09516049
000260 92 df ba 3e 20 e1 03 3f eb c8 cf 3d 24 68 1d be
       0.36498696 0.5151539 0.10145744 -0.15371758
000270 db 05 08 3f c0 0c 4a 3e f8 cc 8e be 67 4b d4 bc
       0.53133935 0.19731426 -0.27890754 -0.02591486
000280 c5 e0 59 bd 57 84 30 3e 01 ae 68 be 36 8f 17 be
       -0.053192873 0.17237984 -0.22722627 -0.14800724
000290 2a 26 9f bd 01 e1 31 3e e1 4a 2a 3e 59 9d 99 3e
       -0.07770951 0.17370988 0.16630127 0.3000286
0002a0 16 1f 86 be 40 70 1e 3e 3a 30 a4 3e b2 c4 c4 bc
       -0.26195592 0.15472507 0.32068044 -0.024019573
0002b0 59 a9 6c be 29 95 c3 be 63 2b d0 bd 5c 63 0b bc
       -0.23111476 -0.38199738 -0.10164525 -0.008507576
0002c0 75 e7 77 3e 12 41 88 3e 32 4e a4 bc cb 38 1f be
       0.24209388 0.26612145 -0.020056818 -0.15549009
0002d0 7f 7a b7 bd 33 1c a5 3e 00 89 80 3e 1b 08 88 3d
       -0.08958911 0.32248077 0.25104523 0.06642171
0002e0 47 05 a6 3e 24 4a 69 3e 64 4d e3 be 65 f6 ee 3e
       0.324259 0.22782189 -0.44394982 0.4667236
0002f0 81 e2 9a 3e 00 28 2d be 47 8b c3 be 55 7f 54 be
       0.30250934 -0.1690979 -0.38192198 -0.20751698
000300 70 b9 d4 3c 86 d4 ba be 42 e0 4f 3e 63 07 a4 3e
       0.02596733 -0.36490268 0.20300391 0.32036886
000310 ed 93 d8 3e 65 46 39 bf 34 cd ca 3e d0 54 16 bf
       0.42300358 -0.7237304 0.39609683 -0.58723164
000320 0f 10 63 be 5b 78 37 bf 47 95 55 be 24 63 17 3d
       -0.22174095 -0.7166802 -0.20857726 0.036959782
000330 a7 4c e4 bd ed fd 7e 3e b0 0e 7c 3e f9 ba f1 3d
       -0.11147433 0.24901552 0.24614978 0.1180324
000340 2b 52 31 be b7 63 8f bd da 0c d9 be 0b 22 49 3e
       -0.17316501 -0.07001441 -0.42392617 0.19641893
000350 ae c2 a9 3e 3b b3 8f be a4 f4 e6 3c a6 4f 83 3e
       0.3315634 -0.2806643 0.028192826 0.25646704
000360 60 7c 59 bd 98 88 14 be 69 d6 9b be bc 41 7c bd
       -0.05309713 -0.14505231 -0.3043702 -0.061586127
000370 56 0f 1b 3e 42 28 1c 3e 39 48 25 bd ae 96 96 be
       0.15142569 0.15249732 -0.04035208 -0.29411834
000380 7f 0e 9b be de 2b 50 3e 7c bb 87 3e 42 2b a9 be
       -0.30284497 0.20329234 0.26510227 -0.33040816
000390 8a 74 47 bc b5 26 02 3f 63 c5 18 bf cc ea 3b bc
       -0.012173781 0.5084031 -0.5967619 -0.011469554
0003a0 cc a8 69 3f 9a e1 4f 3e 8d 08 08 bf 18 91 2d be
       0.9127319 0.20300904 -0.5313805 -0.1694988
0003b0 c9 c0 07 be 07 4a 61 3e aa 80 43 3e b0 ab a2 bd
       -0.13257135 0.22000895 0.1909205 -0.07942903
0003c0 b5 f9 ed 3e 7d c7 ee 3d d5 1a b4 3d 40 e9 15 3e
       0.46479574 0.11659143 0.0879418 0.14639759
0003d0 dd 51 cf 3e 3b 61 e3 3e 5d 0c 89 3d 65 3b f6 bd
       0.40492144 0.44410118 0.06691811 -0.12023047
0003e0 b3 bb 92 3e 51 75 03 3e 11 83 a0 bd be 0a b2 bd
       0.28658828 0.12837721 -0.07837499 -0.08693455
0003f0 3e f1 cc 3e 4c 5b dc 3e 02 ce 96 be 9f 3a a5 be
       0.40027803 0.43038404 -0.29454046 -0.32271287

lstm.bias_ih_l0 f4 [256]
000000 81 7c 82 bc f9 e3 94 bd bc df 7d 3e f4 82 8c bd
       -0.015928509 -0.07270045 0.24792379 -0.06860915
000010 83 51 da 3d 67 d1 d3 3c c0 7a 15 bd 96 91 22 3e
       0.106600784 0.025856687 -0.036494017 0.15875849
000020 96 97 14 3a ac e2 ef 3c 62 77 e3 bc b2 64 d6 3d
       0.000566834 0.02928289 -0.027766887 0.10468425
000030 61 f5 2c 3e 2b d4 a6 3b 9a 39 a7 3c 9c 76 7e 3e
       0.1689048 0.0050912104 0.020413209 0.24849933
000040 75 fa 35 3d 46 a2 72 bd 73 91 5d 3e e0 4b c0 bd
       0.044428308 -0.059236787 0.21637516 -0.09389472
000050 09 44 0c 3e a5 0d 73 bd f1 53 e4 3c 04 83 13 3d
       0.13697828 -0.059339184 0.027872058 0.036013618
000060 e9 f8 0f be 9e 55 6c bd ba 29 1b bd b9 47 ed 3d
       -0.14059795 -0.05769884 -0.03788159 0.11585946
000070 7b 08 f6 bd 44 9a 80 3d e2 d3 98 be 33 30 19 3e
       -0.12013336 0.06279424 -0.29849154 0.14959793
000080 41 ae e4 bd f7 b4 10 be 61 0b c9 bc 24 71 be 3d
       -0.11166049 -0.14131533 -0.024541559 0.092989236
000090 57 81 9e bd 69 01 8c be 07 d7 24 3d 22 06 dc 3d
       -0.07739513 -0.27344826 0.04024413 0.10743357
0000a0 75 e7 e5 bd 04 41 09 3e 24 96 04 3d 56 40 49 bc
       -0.112257876 0.13403708 0.032369748 -0.012283405
0000b0 72 28 70 3e 94 4f e9 3d 0b 70 08 3e d8 a0 a9 bd
       0.23452929 0.113921314 0.13323991 -0.08282632
0000c0 2c a8 0e 3e 4a 69 f7 bc 55 c1 27 be 2a c6 94 be
       0.1393134 -0.030201573 -0.16382344 -0.29057437
0000d0 ff d4 c6 3d f8 f0 17 be 08 7b 8a bc 96 76 c3 bc
       0.097085945 -0.14838016 -0.016904369 -0.023860257
0000e0 4a d9 31 3e 52 b1 2d 3e fc 85 91 bd 11 93 ce 3c
       0.17368045 0.16962174 -0.071056336 0.025216611
0000f0 9e a3 45 bc 73 4a 7f be 2b 1f 4e 3d 04 8a 89 3c
       -0.012062935 -0.24930744 0.050322693 0.016789444
000100 b2 a7 c3 bd 93 5c 26 be 8e 05 b4 3d 24 e9 d8 3c
       -0.0955347 -0.16246252 0.08790122 0.026478358
000110 7e 2b f7 3d 84 ba 62 be 60 c6 25 3e c3 4e aa 3d
       0.12068842 -0.22141463 0.16188955 0.08315804
000120 06 46 62 bc 5c 7c a3 bd ed 7a f9 bd 1e b7 e3 3d
       -0.01381064 -0.07982704 -0.12181649 0.11118911
000130 67 b0 1b be 6d 3f 62 3d d8 ba c1 bd b7 21 7d bb
       -0.15204011 0.05523627 -0.09459466 -0.0038624832
000140 ae a3 2b be ff c8 76 3d 93 ed bf 3d e2 75 2b be
       -0.16761658 0.06025028 0.093714856 -0.16744187
000150 13 2e 95 bd 91 22 f4 3d b9 c6 11 3d 98 12 24 3d
       -0.072841786 0.119206555 0.035589907 0.040056795
000160 9d e5 8d 3d d6 8c e3 3d 4d 8d d0 bd 6c 63 c3 3d
       0.06928561 0.11110847 -0.10183201 0.095404476
000170 a1 fe 04 be 2f f7 1c be 34 c1 71 bd 2e ab c1 bd
       -0.12987758 -0.15328668 -0.059022143 -0.09456478
000180 c9 cd 40 3d 44 89 48 bd e2 c2 47 be c9 0c 80 3e
       0.047071252 -0.04895903 -0.19507936 0.25009754
000190 a3 b1 27 be 55 ab 07 bd ab fa 6f 3b 59 16 77 be
       -0.16376357 -0.03312238 0.0036617916 -0.24129619
0001a0 fe 96 d1 3d 1a 44 06 be d8 de 06 bd c4 3d d5 bd
       0.102338776 -0.13111916 -0.032927364 -0.104121715
0001b0 cf 37 30 3e ba 8b ae bd a3 84 95 bd 96 8b 6e be
       0.1720879 -0.085227445 -0.07300689 -0.23295435
0001c0 0b 5f b1 bd f5 c1 48 be fb ca b3 3d 1d 6d 24 be
       -0.08660706 -0.19605239 0.0877895 -0.16057248
0001d0 f2 86 a3 bd 25 4e 72 be 8a 58 a0 bd 4b 6d 4b 3e
       -0.07984723 -0.23662622 -0.078293875 0.1986591
0001e0 6c 7e 0d be 77 f8 8b be 90 cc a7 bd 9b af 14 3e
       -0.13817757 -0.27338 -0.08193314 0.14520113
0001f0 22 44 a8 bc 4f 78 4d bd 90 27 2a 3d 50 71 f3 3d
       -0.0205403 -0.050163563 0.041541636 0.11886847
000200 e9 60 1f 3e c5 f7 f0 3d 26 22 0f be 95 33 c6 bd
       0.15564312 0.11766008 -0.1397787 -0.09677807
000210 9d 23 ec bd 1e f3 82 bd 2e 22 fa 3d af 9e 6d bd
       -0.1153023 -0.06394027 0.122135505 -0.05801266
000220 6c 97 92 3d 80 57 9c bd 1f 33 98 bd 26 c0 05 3d
       0.07157788 -0.07633877 -0.074316256 0.03265395
000230 2c ac be bd f9 40 13 be b7 be 54 3d 62 5d bb 3d
       -0.09310183 -0.14380254 0.051939692 0.09148671
000240 a9 3c e0 bd 3b 5a 3f be f1 57 e0 3c a9 69 32 3e
       -0.1094907 -0.18686764 0.027385684 0.17423119
000250 c1 5b 8e 3b c6 89 1a 3e 51 8d e7 3d 33 b7 2a 3d
       0.004344434 0.15091619 0.11306251 0.04167862
000260 83 ae 07 bc 0b e8 ab bd de fd c2 3c fe 2b 0d be
       -0.008281353 -0.08393868 0.023802694 -0.13786313
000270 19 e8 a5 3c eb e1 83 3c 4d 15 ff 3c 08 2f ae 3d
       0.020252274 0.016098937 0.031138087 0.08505064
000280 18 ba 0b 3d 43 04 09 bd c7 03 66 be 7e e3 61 3c
       0.03411302 -0.03345133 -0.22462378 0.0137871485
000290 71 e1 94 3c 79 ec 03 bc 96 3a a0 bd 4e b5 0a be
       0.018173905 -0.008051985 -0.078236744 -0.13545725
0002a0 01 e4 9a 3d bd ef 89 3d 39 39 11 be 69 a6 8f 3c
       0.075630195 0.067351796 -0.14181985 0.017535405
0002b0 27 f1 bc 3b 7f 33 19 bd 94 5c 05 3d 35 3c b1 3b
       0.0057660523 -0.037402626 0.032558993 0.0054087886
0002c0 a3 72 50 bc 6d 94 b9 3d 1e 07 1f 3e 04 08 d5 bb
       -0.012722644 0.09061513 0.15530059 -0.0065011997
0002d0 3a 7f a4 bc f8 27 ca 3d 49 18 9a 3c 10 06 23 be
       -0.020080198 0.09870905 0.018810408 -0.15920281
0002e0 86 cd 28 be e3 21 11 be 8f 84 1a 3e 7d 08 24 be
       -0.16484651 -0.14173083 0.1508963 -0.16018863
0002f0 6f 0b 2c 3d dd f9 0b 3d b9 eb 69 3b 70 5e 06 3e
       0.04200309 0.034173835 0.003569348 0.13121963
000300 8c ee a5 bc b8 b2 d3 3d c1 96 fa 3c 13 88 94 3b
       -0.02025535 0.10336822 0.030589463 0.004532823
000310 8b 5f 06 3e 40 e5 0e 3e 36 56 65 3e 33 4b a4 3e
       0.13122384 0.1395464 0.22396168 0.32088622
000320 85 34 82 3d 7f 8c 9d 3d e4 e8 28 be c9 0d 6c 3e
       0.063576736 0.07692813 -0.1649509 0.23052134
000330 ba bc 0b 3e f6 a4 02 bd f4 c3 de bd 4d c6 47 3e
       0.13646212 -0.0318956 -0.10877219 0.1950924
000340 80 0d 2b 3e d4 85 db bc 14 01 a5 bd ec 5d 4f 3e
       0.16704369 -0.026797213 -0.08056846 0.20250672
000350 19 fb 8f 3e ed e3 e1 3d 8a 79 77 3e e7 a5 34 3d
       0.2812126 0.110298015 0.24167457 0.04410353
000360 24 70 d6 bc 01 75 24 bd 68 37 8c 3e 49 ed d8 bc
       -0.02617652 -0.040150646 0.27386022 -0.026480334
000370 a4 cc f9 bd e8 8f 8d bc e7 54 1f be 9d b3 90 3e
       -0.12197235 -0.017280534 -0.15559731 0.28262034
000380 a6 b5 47 3d f7 d5 63 3d a7 d0 db bd 64 ce d5 3d
       0.048757218 0.055623975 -0.10733157 0.104397565
000390 0e 7c 9f bd dc 31 86 3d b3 38 ea 3d d8 99 97 3e
       -0.077873334 0.06552479 0.11436596 0.2960956
0003a0 20 f2 f8 3d 9a 91 c3 3e 32 da c3 3d 15 c1 d8 bb
       0.12155557 0.38197023 0.09563102 -0.006614814
0003b0 d0 c3 1c 3e b7 3b 96 3e d9 fc 84 3e 03 bf 50 bd
       0.15309072 0.29342434 0.25974157 -0.050963413
0003c0 52 8c 82 3e a1 ae a0 3e e9 ff 10 3e bf ff da 3d
       0.2549768 0.3138323 0.14160122 0.10693311
0003d0 51 f4 0b 3e bb 56 ac 3d a0 65 93 bd 41 38 1c be
       0.13667418 0.0841498 -0.07197118 -0.15255834
0003e0 52 a1 84 3e 74 e1 65 3e 30 97 1a 3e 58 26 01 3f
       0.25904328 0.22449285 0.15096736 0.5044913
0003f0 38 84 7f 3e d9 5e 72 bd 0e e0 85 bd 49 e4 1f bd
       0.24952781 -0.059172485 -0.06536876 -0.03903607

lstm.bias_hh_l0 f4 [256]
000000 d8 2c 5f bc 4d 53 ad bc 76 46 e6 3d 0d ed 42 bd
       -0.013621531 -0.021157885 0.11243908 -0.04758935
000010 2f 7d 95 3d 11 cd 83 3d ff 6f d0 bc 1e 41 10 3d
       0.072992675 0.06435598 -0.025444029 0.03521835
000020 d1 f6 c9 bd 1c 88 a1 3d 74 15 79 bd 21 0a f1 bc
       -0.098615296 0.07887289 -0.060811475 -0.029423775
000030 9f 2d 2c 3e a3 70 b6 bd 5f 55 2a bd db b2 a6 3d
       0.16814278 -0.089082025 -0.041585322 0.08139583
000040 05 89 4e 3d a3 f8 da bd 22 3e f2 3c 6a e6 80 bd
       0.05042364 -0.10691955 0.029570643 -0.06293948
000050 f5 13 a0 3d cb ec a4 3c df bc 8c 3d 49 58 be 3c
       0.078163065 0.020132443 0.06871962 0.023235457
000060 e8 35 07 3d 88 f4 4f bc f4 f2 d4 3b c5 ae 81 bc
       0.033010393 -0.012692578 0.006498689 -0.015830407
000070 be fa 15 be 96 b0 a1 bd c6 56 87 be 11 81 38 3e
       -0.14646432 -0.07895009 -0.2643339 0.18017985
000080 16 60 ba bd 5b 17 61 be 81 78 30 bd f4 74 f0 3c
       -0.09100358 -0.21981566 -0.04308367 0.029352643
000090 37 62 4e be 22 b3 4a be ae e2 7a 3e 5c d5 7a 3e
       -0.20154653 -0.19794896 0.24500534 0.24495453
0000a0 c0 68 60 bd 4c 17 6b 3e 36 e4 2e bc 8b a1 09 be
       -0.054787397 0.22958106 -0.010674527 -0.1344053
0000b0 d4 90 73 3e 6e 81 d3 3d ff cc 40 3e 50 9e 5f bd
       0.23785716 0.10327421 0.188282 -0.054594338
0000c0 0c 03 42 3d 24 7b 24 3d 84 61 a3 ba 88 a8 ab be
       0.047366187 0.0401565 -0.0012464975 -0.33527017
0000d0 38 80 8b 3d 70 b0 13 be d6 cf 9d bd 81 7c 76 bd
       0.06811565 -0.14422774 -0.07705657 -0.06017733
0000e0 30 00 9b 3c f2 1b 80 3d b6 48 23 be dc 54 58 3e
       0.018920988 0.0625533 -0.15945706 0.21126121
0000f0 5a b1 1b be 6b fc 07 be 82 4e a0 bd c3 fd 73 3d
       -0.15204373 -0.13279884 -0.07827474 0.059568178
000100 da a4 a6 3d 3f e5 b5 3c 88 12 f2 3d ec d1 50 bd
       0.08136912 0.02220404 0.11819941 -0.050981447
000110 5a c8 8c bd 6a f5 f8 bc 7a 82 5a 3e d8 b7 2c bc
       -0.068741515 -0.03039046 0.21338835 -0.010541879
000120 d3 a7 e3 bd 70 74 26 be f8 e6 93 bd ec b3 b5 bd
       -0.11115994 -0.16255355 -0.07221788 -0.08872208
000130 9e 48 c7 bd 07 bd 1a bd ff ad 67 be c7 b9 a8 bd
       -0.097306475 -0.037777927 -0.22624968 -0.08238559
000140 b5 bd 91 be d9 e2 88 bd cc e7 07 be a0 47 73 be
       -0.28465047 -0.06683893 -0.13272017 -0.23757792
000150 cd 8b c0 bc 0b 43 a4 3d 25 35 0f 3d 5c 01 b7 3c
       -0.023504162 0.080206 0.034962792 0.022339515
000160 15 ea dd bd 90 6a ee 3d 09 13 3f bc f8 48 b4 bd
       -0.10835663 0.11641419 -0.011662253 -0.0880298
000170 11 ce ba bd 6d ee 73 3c 3c 02 f0 bd b3 4c c2 bb
       -0.09121335 0.014888388 -0.11719176 -0.0059295534
000180 0c 79 09 3e e6 6d 2e bd 47 8a 12 bd 93 6d 95 3e
       0.13425082 -0.042585276 -0.035776403 0.2918516
000190 59 8c 98 bd 6f 31 1d 3d b5 8c 17 be 3d 82 61 be
       -0.07448644 0.03837722 -0.14799769 -0.22022338
0001a0 8b 49 2d bd 5a cf 8e bd 4c 26 72 be b2 86 69 bd
       -0.042306464 -0.06973143 -0.23647422 -0.05701322
0001b0 35 1f d6 3d a9 c7 53 3d 9a d5 01 3c f7 01 0a be
       0.10455171 0.051704083 0.007924462 -0.13477312
0001c0 38 50 e8 bd 2e 20 f9 bd f3 70 ea 3d 11 dd 0c 3d
       -0.113434255 -0.12164341 0.114473246 0.034390513
0001d0 d7 11 07 3e 98 00 b5 bd 17 66 04 be e9 63 45 3e
       0.13190399 -0.08838004 -0.12929569 0.19276394
0001e0 53 fb 48 3c 9e 1a 71 be bf 0c 08 be 5a f2 a0 3d
       0.012266952 -0.2354531 -0.13286112 0.07858725
0001f0 d9 ee a7 3a 2f 3b ad bd 36 87 79 3c 46 37 be 3d
       0.0012812271 -0.08458554 0.015229991 0.09287886
000200 cd 38 0d 3e ba de b6 bc 6c 0b 4f 3c 50 61 87 3a
       0.13791199 -0.022323001 0.0126370005 0.0010328684
000210 5f 42 d3 3d d2 ef a9 3c 58 cb e8 3d 85 34 88 bc
       0.10315394 0.020744238 0.1136691 -0.016626606
000220 22 43 8e 3d 00 ab f5 bd 7f e7 a1 3d ad f4 06 bd
       0.06946398 -0.11995506 0.079054825 -0.032948185
000230 96 2a b7 bd ec ca 55 bd 37 92 95 bd 1a b6 27 3c
       -0.089436695 -0.052195475 -0.07303279 0.0102362875
000240 e6 6d 5f bc 31 fb 12 be d6 34 7b bc e6 37 1f 3c
       -0.013637042 -0.14353634 -0.015332421 0.009717917
000250 af 91 21 be 86 8b 02 3c 8d f7 12 3d 7c 1f 9f 3d
       -0.1577823 0.007967835 0.035880614 0.07769677
000260 45 b0 8f 3d b4 54 6f bc 45 ed 78 3c 08 3e 6d 3d
       0.070160426 -0.014607597 0.015193288 0.057920486
000270 d5 94 ab 3d a3 8f b5 3d b2 b2 3b bd bb a4 fd 3d
       0.08377997 0.08865287 -0.045824714 0.123849355
000280 b8 7e 8f bc f5 a0 4b bd a9 ac 55 be 36 77 41 3d
       -0.017516479 -0.049714047 -0.20866646 0.04723283
000290 19 3c b1 bd 97 7f 9e 3d 76 91 99 bc 77 3b 50 bc
       -0.08654041 0.077391796 -0.018746119 -0.01270949
0002a0 ec f1 3a bd 70 f7 70 3d c5 a2 82 3b 38 b4 e0 bb
       -0.04564087 0.058829725 0.003986689 -0.0068574212
0002b0 c3 b3 c0 bd 62 d9 81 bb 14 ee 15 3d a1 d7 24 3d
       -0.09409287 -0.0039626816 0.036604002 0.040244702
0002c0 b7 36 14 be 36 70 5e 3d 40 13 07 bd ef 94 d6 bd
       -0.14473997 0.05430623 -0.032977343 -0.104776256
0002d0 b0 30 5a 3e 6f d2 47 3d 82 9f dc bd 49 81 f5 3c
       0.21307635 0.04878467 -0.10772611 0.029968875
0002e0 fa ac 53 be 39 bf a7 bd 34 4a 2f 3d 55 53 81 3d
       -0.20671454 -0.0819077 0.042795375 0.063147224
0002f0 d4 5b da 3c 86 8a 84 bc d8 a2 85 3d bf e5 60 3d
       0.026655115 -0.016179334 0.065252006 0.054906603
000300 77 e3 3f 3e 9f 00 0a 3e c6 97 4b 3e ab 8d 3f 3d
       0.18739115 0.134768 0.19882116 0.046765964
000310 23 e8 e4 3d 09 74 7e 3d 40 d4 d1 3d 80 6d 7d 3e
       0.11177089 0.06212238 0.102455616 0.24748802
000320 56 aa ec 3d 40 bb 67 bd e9 0f 7b bc f5 47 81 3e
       0.115559265 -0.05657506 -0.0153236175 0.2525021
000330 c8 ff 29 3e ae 05 b6 3d 0a 19 3f 3d cc 5f 72 3e
       0.16601479 0.08887802 0.04665474 0.23669356
000340 f7 88 8c 3e 34 8a 1b 3d d9 ff b8 3c c7 81 85 3e
       0.27448246 0.037973598 0.022582935 0.26075575
000350 f0 9d a2 3d f1 f8 8c 3c 93 66 82 3e c1 f2 df 3d
       0.079402804 0.017208548 0.25468883 0.109349735
000360 df 05 a1 bd 88 36 94 3d 2a 6b a5 3d 6b 50 d0 bd
       -0.07862448 0.072369635 0.080770805 -0.101715885
000370 3a 38 f1 bd 94 b7 92 3d 15 02 38 be 7e 5d a0 3d
       -0.117783025 0.07163921 -0.17969544 0.07830332
000380 16 d8 30 3e d5 89 28 3e f9 85 21 bd 0a 02 cc 3a
       0.1726993 0.16458829 -0.039434407 0.0015564573
000390 02 18 74 3b 82 76 00 3e d0 85 bd 3c c6 b9 ac 3e
       0.0037245755 0.12545207 0.023135096 0.33735484
0003a0 d2 c8 65 3e 8c 8a 83 3e 3d 41 38 3e 43 6a 67 3e
       0.22439888 0.2569164 0.17993636 0.2259913
0003b0 35 ad 65 3d 9a 88 8c 3d 08 17 37 3e 29 05 39 bd
       0.056073386 0.06861992 0.1787988 -0.045170937
0003c0 1d 0b ce 3d 43 b6 8c 3e 74 f4 7f 3c a1 31 95 3d
       0.100607134 0.27482805 0.015622247 0.072848566
0003d0 e4 34 a3 3d 28 f5 1d 3e fa c7 ce bd f3 c6 9e bd
       0.079690725 0.15425551 -0.10096736 -0.0775279
0003e0 03 ce ed 3d 24 23 2b 3e b0 05 66 3d 30 ab d6 3e
       0.11611559 0.16712624 0.056157768 0.4192748
0003f0 c2 01 07 3e 55 b8 9b 3c a6 51 44 3d 83 56 13 3e
       0.13184264 0.019008795 0.04792943 0.1438847

lstm.weight_ih_l1 f4 [256, 64]
000000 ab 63 05 bd 2a 2d 16 be 96 57 fc 3d de 2d 43 3e
       -0.032565754 -0.14665666 0.12321393 0.19060466
000010 04 3e 1d 3e 31 35 d9 3e 98 c7 6f be de e7 d0 3e
       0.15355688 0.42423394 -0.23415983 0.408019
000020 57 5d aa bc 71 7e 18 3e 83 16 04 bd 3b 36 0f be
       -0.020796461 0.14891984 -0.03224803 -0.13985531
000030 32 bc 81 3e da 53 ae 3b 75 a6 91 3d 3c 79 ee bd
       0.25338894 0.0053200545 0.07111827 -0.11644217
000040 e2 57 52 3d 40 69 b1 3e 85 5d ce bc ba de 89 bd
       0.051353343 0.34650612 -0.025191078 -0.06731935
000050 ed 59 37 be 59 1d d5 3c 7f 0c e1 be 47 51 78 bb
       -0.17905398 0.02601497 -0.43954846 -0.0037890242
000060 78 9c a7 be cc 87 23 3d 4f 3f ee 3b 8a c3 bf 3d
       -0.32736564 0.039924428 0.0072707306 0.09363468
000070 5d e8 35 be 46 35 7b 3d 88 4a 8d bd 1e 02 1b 3d
       -0.17764421 0.061330102 -0.06898981 0.037843816
000080 93 35 6b 3d ed fe 16 3e c0 a3 ca bd 28 89 8a 3e
       0.05742414 0.14745684 -0.09894514 0.27057767
000090 10 1e 1d 3d 07 54 03 3e aa f8 58 be 1e 24 27 bc
       0.038358748 0.12825023 -0.21188608 -0.010201482
0000a0 d4 4b 8a 3e 24 13 ab be 54 7a be bd 11 8c 89 be
       0.27010977 -0.3341304 -0.09300676 -0.26864675
0000b0 a7 2c 50 3e 0a 36 81 3e 73 53 0e be 84 0e 3f be
       0.20329534 0.2523654 -0.13899021 -0.18657881
0000c0 80 3e 7c be 0c a2 17 be 1c cb 20 3d cf 64 8d bc
       -0.24633217 -0.1480791 0.0392562 -0.017259983
0000d0 da 74 e7 be f9 7c 00 be 57 3c cb be 5a 57 dd 3c
       -0.45206338 -0.12547673 -0.39694473 0.027019192
0000e0 e6 85 a7 be ac ea b0 3d 49 5b 54 3d 04 f2 89 3d
       -0.32719344 0.0863851 0.05184487 0.06735614
0000f0 38 9d 01 3d ae 6c f2 bd e7 54 84 be 8a 56 16 bc
       0.031644076 -0.11837135 -0.25846025 -0.009175906
000100 8a b6 3c 3d 1c c0 e9 3d 56 a9 35 be b5 24 33 be
       0.04607252 0.11413595 -0.17740378 -0.17494471
000110 20 72 a0 3c 81 86 b1 3d 91 41 00 3d ca ed 2c be
       0.019585669 0.08668233 0.03131253 -0.16887584
000120 75 1a b9 bd 9f 6b d2 bd 24 f1 65 3e a1 d6 9a bd
       -0.090382494 -0.10274433 0.22455269 -0.075604685
000130 fe 18 3a 3e b2 b8 9d bd b5 7d 68 be 23 db 60 3d
       0.18173596 -0.077012435 -0.22704203 0.054896485
000140 ea 15 ae 3e 7e ac 07 3e 4b b9 fa be 18 73 28 bd
       0.34001094 0.13249394 -0.48969492 -0.041125387
000150 93 b4 81 3d 1e 8f a3 bd 36 82 99 bc 3a c9 ce bd
       0.0633327 -0.07986282 -0.018738847 -0.10096975
000160 75 cf 8a be 06 ad 09 3e 12 44 00 be 82 6a 25 bc
       -0.27111402 0.1344491 -0.12525967 -0.010096194
000170 72 67 41 bc 64 29 ba 3d 85 8b 84 bd 82 08 c2 be
       -0.011804448 0.09089926 -0.06471924 -0.37897116
000180 21 b7 53 bd ef c4 2d bd 76 1f a5 be 47 d4 c4 3d
       -0.051688317 -0.04242414 -0.32250565 0.09610801
000190 f6 5b 66 be 0d 74 00 3d 06 05 2b 3e 3c 66 1e 3d
       -0.22496018 0.031360675 0.16701135 0.038671717
0001a0 0b 27 16 be fb 71 a9 bd d0 f5 b1 bd f7 f1 2c bd
       -0.14663331 -0.08273693 -0.08689463 -0.042222943
0001b0 77 94 57 3c 2d 30 20 3d 69 b8 d9 3c bb 49 2c be
       0.013157955 0.039108444 0.026577191 -0.16825001
0001c0 d5 7c c3 3e 64 61 56 be 36 0c 1d be 34 4e 65 bd
       0.38181177 -0.20935589 -0.1533669 -0.055982783
0001d0 3a 06 24 3d 03 06 80 3e f6 6a e1 3d 9d 4d e6 3d
       0.040045 0.25004587 0.11006729 0.11245272
0001e0 30 22 70 3d 59 31 32 3d e4 1b 8d be 3e 65 7f 3e
       0.058626354 0.043504093 -0.2756034 0.24940965
0001f0 00 1b 8a bd ad d8 a0 3d 09 7e 7b 3e 3f 54 a8 3d
       -0.06743431 0.078538276 0.24559797 0.08219194
000200 06 f4 a5 bd 7b f8 7d 3d c7 a0 1f be 72 5f ac bc
       -0.081031844 0.062004548 -0.15588675 -0.021041606
000210 74 8a 19 3e 04 ba a9 3e b5 b4 ca bd 49 4a 0a 3e
       0.14994222 0.3314973 -0.098977484 0.135049
000220 42 cd 03 be 41 c1 7d 3d 78 e6 e7 3d 51 90 4c be
       -0.12871268 0.06195188 0.11323255 -0.19976927
000230 58 cc 30 3e 0f 28 d9 3c ae 5e bf 3d 02 b5 57 3d
       0.17265451 0.02650836 0.093442306 0.052662857
000240 6e b2 b0 bd ae 1a d9 3d e9 db a1 bd 8e 9b 99 bd
       -0.08627783 0.10600792 -0.07903273 -0.07500373
000250 7c e6 81 be 02 bb 78 be ec 06 a1 be 1f 37 a9 3e
       -0.25371158 -0.24290088 -0.31450593 0.33049867
000260 96 10 c8 be 22 1b a6 3e 6b 71 6f 3e f8 19 52 3e
       -0.39075154 0.32442576 0.2338311 0.20517719
000270 f9 b4 2b be c5 4a ac bd 9a 55 48 be 8b 17 13 be
       -0.16768254 -0.08412699 -0.19563904 -0.1436445
000280 c9 23 1b 3e 43 73 a7 3e b2 ea 29 bd 6d ff a8 3e
       0.1515037 0.32705125 -0.04148359 0.33007374
000290 cc 04 18 3e d4 56 2c 3e 34 b2 2a bf 90 27 e0 3c
       0.1484558 0.16829997 -0.66678166 0.027362615
0002a0 be 67 2f 3e f0 2f 6b bd 85 b5 21 bd e9 36 0d be
       0.17129418 -0.057418764 -0.03947975 -0.13790478
0002b0 21 e0 18 3e 20 ac 89 3e 91 7f 4c 3e 91 54 aa bd
       0.14929248 0.26889133 0.19970538 -0.08316911
0002c0 dc e8 f4 3d e9 d5 98 3d 1b 68 91 bd db c3 2d bd
       0.11958477 0.07462675 -0.07099935 -0.04242311
0002d0 13 12 89 be ce cd c9 3c 1f f4 8e 3d 0d f9 25 be
       -0.26771602 0.024634268 0.06980156 -0.16208287
0002e0 a6 0a d3 3d 7d f1 73 3d e1 65 2f be 18 61 87 bd
       0.103047654 0.059556473 -0.17128707 -0.06610316
0002f0 95 67 20 3e 2b 34 42 3e dd 9d f8 bd 03 dd 8f be
       0.15664513 0.18965213 -0.12139485 -0.28098306
000300 4e 1d 63 be ac e6 5c bd 33 45 6a 3e 3b a3 62 bc
       -0.22179148 -0.053930923 0.2287796 -0.0138328625
000310 4c 17 bc 3d 94 4d b8 bd 1b 60 3c bd c5 9f 8b be
       0.09184131 -0.08999172 -0.04599009 -0.27270332
000320 9e 32 51 be 41 03 8f 3e da 49 b7 be 4f 45 7c be
       -0.20429465 0.2793217 -0.35798532 -0.24635814
000330 f6 ac 30 3e b0 c2 9c 3e 67 0c 3b 3e ac d9 30 be
       0.1725348 0.30617285 0.1826645 -0.17270535
000340 48 4d 87 3c fb 23 9c 3e c0 25 01 3e ce 58 c7 bc
       0.016516343 0.304962 0.12612057 -0.024334338
000350 67 df e7 3d db 4d ab 3e b8 67 ea ba 6b f0 39 be
       0.113219075 0.33457837 -0.0017883694 -0.18158118
000360 e4 d6 fc 3c 97 c3 77 bd 06 c9 8c 3e 6d 94 19 be
       0.030864187 -0.060489263 0.2749712 -0.14998026
000370 ec d8 ce bd 03 91 83 bb e5 bc 9e 3e 2c 10 2e be
       -0.10099968 -0.0040150895 0.3100349 -0.16998357
000380 67 29 42 be 6f 81 80 3d 20 be b7 be c6 0e d0 bd
       -0.18961106 0.062746875 -0.3588724 -0.10159068
000390 ce 9e d0 bd 95 20 da be 77 ad e2 be d6 1d 6e 3e
       -0.101865396 -0.42602983 -0.44272968 0.23253569
0003a0 8f d5 22 3e 29 a1 b1 bc 55 91 b3 bd 08 da 60 be
       0.15901779 -0.021683292 -0.08767954 -0.21958172
0003b0 86 83 92 bb 22 64 79 3e 28 44 27 bd b7 fb 7f bd
       -0.004471245 0.24354604 -0.040836483 -0.062495913
0003c0 3a 48 a4 be 9d 83 5e be 0a e7 a4 3e e0 3e 24 be
       -0.32086354 -0.21729894 0.3220752 -0.1603961
0003d0 eb 0e 10 3e 79 11 e9 bb 50 8c 1a 3c 52 3c 4a 3d
       0.14068191 -0.0071126786 0.009432867 0.049373932
0003e0 b0 ef 51 3b 4c c4 89 3d 32 10 6f 3e c8 d4 50 3e
       0.0032033734 0.06726894 0.23346022 0.2039367
0003f0 f8 6d 85 be f9 a0 05 3d 17 17 5d 3e b8 bd 07 3d
       -0.26060462 0.03262422 0.2159084 0.033139914

lstm.weight_hh_l1 f4 [256, 64]
000000 77 d5 ad 3d 24 8b 04 be 73 b6 b9 bd 9a d9 6b 3d
       0.08487981 -0.12943703 -0.090680026 0.057580568
000010 f3 eb 7c 3e f2 d5 c1 3d 3f 82 da be 9e b9 1f be
       0.24699382 0.09464635 -0.42677495 -0.15598151
000020 3b 27 a2 bd 64 42 28 3e b3 8f ed bd 08 55 9d bd
       -0.07917639 0.16431576 -0.11599674 -0.07682234
000030 04 80 05 be 6f 87 90 3d f3 50 9b bd 98 b0 a4 be
       -0.13037115 0.07057082 -0.07583799 -0.3216598
000040 4d ef 8f be e1 0e 0d 3d 8f 85 9d bc 0a e4 4f ba
       -0.2811226 0.034438018 -0.019228725 -0.0007930404
000050 fb 7f ce 3c 45 c9 8f 3d 81 2e cc 3e aa ac db bd
       0.02520751 0.07020811 0.3987923 -0.107262924
000060 7e 0a d6 bc 28 0c aa bd cb 72 0a 3e 1e 77 fd bd
       -0.02612805 -0.083031 0.13520353 -0.123762354
000070 35 7d 80 3e ae e7 59 3e 9d 3d 52 3d 29 e5 0e 3e
       0.25095525 0.21279785 0.05132829 0.13954605
000080 21 1a 1c be 91 c0 bc 3e 0c 49 31 be b2 88 a0 3a
       -0.15244342 0.36865667 -0.17313021 0.001224777
000090 52 a0 98 be f9 2c c4 3e 5d 61 74 be 94 02 35 be
       -0.29809815 0.3831556 -0.23865266 -0.17676765
0000a0 4e f5 97 3e 78 22 a2 3e 4a a3 bb 3c d6 3e 5d be
       0.2967934 0.31666923 0.02290501 -0.21606001
0000b0 f7 2e 49 3e 5e 6c 68 3d af 64 f9 bd 43 cb fe bd
       0.19646822 0.056743972 -0.12177407 -0.12441113
0000c0 42 b1 54 bd 37 9e 96 3e 14 20 3a bd 69 e5 4f 3e
       -0.05192686 0.29417583 -0.04544075 0.20302357
0000d0 69 b7 e3 3d 1a 95 ae 3e f4 d6 6a 3e a4 4c 93 be
       0.11118967 0.3409813 0.2293356 -0.2876941
0000e0 80 4c ad bd 79 02 e7 bd 24 0e 96 bd f8 55 27 be
       -0.08461857 -0.112797685 -0.07326916 -0.16341388
0000f0 80 4b 29 bd 1e e2 fc 3d 5e bf 2d 3a c4 54 0a 3d
       -0.041331768 0.12347816 0.0006627942 0.033772245
000100 75 0d 87 be ba b3 bf bd 9d c3 b5 3d 38 b6 f5 3d
       -0.26377454 -0.09360452 0.08875201 0.11997646
000110 99 ff 3f bd c0 ec 11 3d fa 9f 9e bd 5e a6 00 bd
       -0.046874616 0.035626173 -0.07745357 -0.03140866
000120 7b df 24 3e 6d 7b d1 3d 5a 79 90 bd fb 1e 43 be
       0.16100876 0.1022862 -0.07054396 -0.19054787
000130 bb f2 64 3c 8b 93 f5 3d 56 21 d0 bd 5b 6c 2e 3e
       0.013973887 0.11991032 -0.10162608 0.17033522
000140 e6 f3 e1 3b 8b 85 57 3e 1a 51 71 3c 09 31 30 bd
       0.00689553 0.21047036 0.014728809 -0.043015514
000150 70 83 e5 3d 08 a8 68 bd b2 2f 53 3e 9c 4b b8 3d
       0.1120671 -0.056800872 0.20623663 0.08998796
000160 87 6e 2e be 82 18 26 3c b1 25 74 3e e3 44 cd 3d
       -0.1703435 0.010137679 0.23842503 0.10022905
000170 9f 60 14 be 45 32 5a 3e c5 58 03 be 3e 04 86 3e
       -0.14489983 0.21308239 -0.12826832 0.26175112
000180 7c 7f 85 bd cf 57 07 3e 71 75 53 3e 60 44 7c bd
       -0.06518456 0.1321709 0.20650269 -0.061588645
000190 10 bc 18 be 50 3a 35 3e 75 da 27 be d2 85 8c 3d
       -0.1491549 0.17698026 -0.16391928 0.06861462
0001a0 81 d2 a8 bc 43 23 30 bd c0 83 49 3d 38 f6 82 bc
       -0.020608189 -0.04300238 0.049197912 -0.015986547
0001b0 37 a6 37 3e 40 a1 3d be d5 e4 19 be 7b 36 80 3e
       0.179345 -0.18518543 -0.15028699 0.25041565
0001c0 49 15 9e be a2 1d 64 bd 13 2d 51 3e 6f f8 33 be
       -0.30875614 -0.055692323 0.2042735 -0.17575239
0001d0 ff 51 38 bd f5 e3 4a 3e 75 06 38 3e bc 3c 20 3d
       -0.045000073 0.19813521 0.17971213 0.03912042
0001e0 c1 0e 48 3e 67 36 2e 3e dc 21 a2 be 1a 74 c7 bd
       0.19536878 0.1701294 -0.31666458 -0.097389415
0001f0 4b b3 a9 bc 07 a9 7d 3d db 23 20 bd ff e7 7b be
       -0.020715376 0.061928775 -0.039096694 -0.24600218
000200 d6 35 32 3e 44 7e a4 bd 70 5b a9 bd f8 d2 5a be
       0.1740335 -0.08031896 -0.082693934 -0.2136954
000210 e7 bf 5b 3e fe 1f 3c be 86 b0 fe be c4 ee 9d bc
       0.21459924 -0.18371579 -0.49744052 -0.019278891
000220 8b 2a 5e bd 8f 2b b0 3e 51 27 65 bd d4 8a e8 bd
       -0.05423979 0.34408233 -0.0559457 -0.11354604
000230 5c f6 a2 bd f5 62 c6 3d 5e 93 72 be 5b 70 e0 3d
       -0.079571456 0.09686843 -0.23689029 0.1095893
000240 0b 0b a2 3d e0 aa b6 3d fe a8 27 be bc 92 52 be
       0.079122625 0.089193106 -0.16373059 -0.20563787
000250 99 de 92 3e e8 6d 25 3e 37 e4 23 3e 5e e9 89 be
       0.28685454 0.16155207 0.16005026 -0.26935858
000260 c8 f7 c7 bd a8 8b 23 3d d0 34 af 3d 91 85 0c 3e
       -0.097640574 0.03992811 0.08554995 0.13722827
000270 c0 8d 8d 3d 27 21 65 3e e2 3d 83 bd fb f1 0c 3f
       0.06911802 0.22375928 -0.064082876 0.5505673
000280 b7 6d cc bd b8 f7 bc bd 0e 03 ed 3b 25 d1 71 be
       -0.09981864 -0.09226936 0.00723303 -0.23614939
000290 9f 95 97 be fe 1b 8a 3d da 0f 6f bd 2d 96 1f 3e
       -0.2960634 0.0674362 -0.058364727 0.15584631
0002a0 a5 49 ca bd 57 0f d7 3d d4 e2 7b 3e 03 bd 80 be
       -0.09877328 0.10500973 0.24598247 -0.25144204
0002b0 25 b4 9c 3e e3 c2 a9 3d b7 15 10 bc 50 e5 16 3e
       0.3060619 0.08289125 -0.00879424 0.14735913
0002c0 1b 54 71 be a1 e7 79 3e 95 e4 57 3e 8f f3 ad bd
       -0.2356724 0.24404766 0.21083291 -0.08493721
0002d0 13 6c d7 bc 4a 25 f2 3d 3d 23 36 be 5d 06 c4 bd
       -0.026296651 0.118235186 -0.1778688 -0.09571526
0002e0 01 7a 35 3e bd f3 9f bc 10 7e 17 3e 67 66 fb bd
       0.17722322 -0.019525403 0.14794183 -0.12275391
0002f0 db d0 47 bd b1 3f c4 3d 9f b9 34 be 27 b1 84 be
       -0.048783164 0.09582461 -0.17648934 -0.25916407
000300 fc ce f9 3d 6a b8 b5 3d 48 2f 7c be 88 cb 92 be
       0.12197682 0.08873065 -0.24627411 -0.28670907
000310 f0 42 17 bc 2e a3 f2 bd f2 e5 a2 bd 1b be 62 be
       -0.009232268 -0.1184753 -0.07954015 -0.22142832
000320 fb ff 79 bd 2b 64 6e 3e a1 6e 02 be 23 76 46 be
       -0.061035138 0.23280399 -0.12737514 -0.19381003
000330 bd ce 32 be 8c 89 0b be 65 18 c9 be 56 c2 49 3e
       -0.17461677 -0.13626689 -0.39276424 0.1970304
000340 ba 80 cc bd ae 54 3e 3e 09 28 e1 3c a4 dc c5 bd
       -0.0998549 0.1858699 0.02748491 -0.096612245
000350 c1 7c 3c 3d d4 e6 03 3e 72 0d 42 3e 68 cb 56 3d
       0.046017412 0.12881023 0.18950441 0.052440077
000360 58 10 a5 be 8a 64 ff bd 25 5f e7 3d 01 8d 04 bd
       -0.32239032 -0.12470348 0.11297444 -0.032361034
000370 ff 33 d3 bc b1 5d a6 3e 84 b1 fd 3d 40 18 1e 3e
       -0.02578163 0.32493356 0.12387374 0.15438938
000380 cf fc 35 bd 13 e2 b7 3d 94 42 55 bd 2e 0f 19 3e
       -0.04443055 0.08978667 -0.052065447 0.14947197
000390 92 8e 96 3e f8 f3 da bd e6 69 81 3e 31 89 9b 3e
       0.29405648 -0.106910646 0.25276107 0.30378106
0003a0 78 fd aa 3e 64 c0 c6 3e 7c 6c c2 bd e7 c6 a8 bd
       0.33396506 0.38818657 -0.09493348 -0.082410626
0003b0 d9 ba b0 3e e7 37 92 3e d6 cf 27 be e1 23 ab 3d
       0.34517553 0.28558275 -0.16387877 0.08356453
0003c0 af e3 52 be 42 8b 07 be 6b 5f 98 be 60 24 9b be
       -0.20594667 -0.13236716 -0.29760298 -0.3030119
0003d0 60 ff 36 be b2 d8 36 bd d4 61 1f 3d 1a 26 c0 be
       -0.17870855 -0.04464025 0.038911656 -0.3752907
0003e0 15 d9 99 3e c1 b0 b2 3e 26 56 b9 bd 0e ff 95 be
       0.30048433 0.34900478 -0.09049635 -0.29296154
0003f0 2a 8b f0 3d 8f 39 31 be 28 ac 94 bc f5 b9 ee bd
       0.117452934 -0.17307113 -0.018148497 -0.11656562

lstm.bias_ih_l1 f4 [256]
000000 6a 2d 09 be fb aa 45 be 61 6f 0f be 01 45 64 bd
       -0.1339623 -0.19303505 -0.14007331 -0.05572987
000010 ea 1a 67 be 1a 75 48 bd 9c 25 ae be 9a b3 7c be
       -0.2256886 -0.0489398 -0.3401307 -0.24677888
000020 b6 93 c0 bd 0a a6 19 be c1 5d f6 bd 3e 9f c9 bd
       -0.094031736 -0.15004745 -0.12029601 -0.09844826
000030 b2 eb 2e be ae 3b 3e be 21 f5 7c be 81 00 a2 be
       -0.17082098 -0.18577453 -0.24702884 -0.3164101
000040 43 7b 8b be f1 a4 9f bd 24 de 78 bd 7e 95 1e bd
       -0.2724248 -0.07795132 -0.060758725 -0.038716786
000050 d9 16 5b be 9a 77 65 be 5b 77 65 bd 84 cd 3c be
       -0.21395434 -0.22408906 -0.05602203 -0.18437773
000060 29 af 71 be fe 70 00 bd f1 e3 ca bd b3 01 f4 bd
       -0.23601975 -0.031357758 -0.099067576 -0.119143866
000070 0b ca 20 be 0e ef 5e be 86 c2 24 be 73 0c 43 bd
       -0.15702073 -0.2177088 -0.1608983 -0.047619294
000080 5a 1f 9b be 17 b4 4c be 56 c8 7b be 5d f4 8e be
       -0.30297357 -0.19990574 -0.24588141 -0.2792081
000090 37 0f 6b bd 63 c0 46 be 7a 74 95 be c9 5a 1f be
       -0.057387557 -0.19409327 -0.29190427 -0.15561976
0000a0 3c 68 40 bc 21 34 55 be 32 79 8e be 20 a2 7f be
       -0.011743601 -0.20820667 -0.2782684 -0.2496419
0000b0 d4 9e 00 bd 31 b5 fd bd 6b fc 57 be f7 1b 07 be
       -0.03140147 -0.12388075 -0.21092384 -0.13194261
0000c0 cb c1 20 bd 6f 02 bf bc 1b 65 c3 bd f5 a3 36 be
       -0.039247315 -0.02331659 -0.09540769 -0.17835982
0000d0 89 6f 65 be e1 b2 e4 bd 62 e5 8f bd 7f 49 66 be
       -0.22405829 -0.11166931 -0.07026173 -0.22488974
0000e0 68 f3 15 be 5e a7 3a be c2 4b 44 be 92 bc 33 be
       -0.14643633 -0.18227908 -0.19169524 -0.17552403
0000f0 2a 02 b6 bd 27 92 96 bd 34 85 b8 be b3 67 7a be
       -0.088871315 -0.07352095 -0.36039126 -0.2445362
000100 35 62 5d be a8 45 a2 be 94 c0 59 be 01 cf 9d be
       -0.21619494 -0.31693769 -0.21264869 -0.30821994
000110 fb 00 bb bd a4 03 3f be 63 59 a0 3d fb f8 88 be
       -0.091310464 -0.18653733 0.07829549 -0.26752457
000120 0f 38 7c be c1 81 93 3c da 25 81 be 4f d3 30 be
       -0.2463076 0.018006207 -0.2522419 -0.17268108
000130 4c 91 af be 03 f1 81 bc 9c 75 07 be ab 8d 26 be
       -0.3429054 -0.015861994 -0.13228458 -0.1626498
000140 05 0b 82 bb b5 0e 99 bd 4d 34 c7 be ed 11 86 be
       -0.003968599 -0.07473508 -0.3890709 -0.2618555
000150 77 66 92 be 34 33 80 be 05 fb 1c be 44 e3 8e be
       -0.285938 -0.25039065 -0.15330131 -0.27907765
000160 10 47 8f be 03 95 af be 31 c6 42 bd dd 12 9a be
       -0.27983904 -0.34293374 -0.04755229 -0.30092517
000170 5b b6 5c 3c dd 36 be bc 5e 15 30 be 7a ed 62 bd
       0.013471211 -0.02321952 -0.17195651 -0.055402257
000180 c7 81 ae be 0a 5b 4b be 88 42 06 be 60 be 75 be
       -0.34083387 -0.19858947 -0.13111317 -0.23998404
000190 09 51 c2 bd e8 db 88 be 5e 8e 37 be e0 99 1d be
       -0.094881125 -0.26730275 -0.17925403 -0.1539073
0001a0 e8 9a a8 be 29 a2 d5 be 72 55 b2 be 65 a6 86 bc
       -0.32930684 -0.4172528 -0.34830815 -0.016436765
0001b0 17 41 36 be 10 75 97 3c dd ab 65 3d 65 25 4f be
       -0.17798267 0.018488437 0.056072105 -0.20229109
0001c0 dd 3f 6b be 45 f8 1d be 7b f2 37 be f1 83 82 be
       -0.2297358 -0.15426739 -0.17963593 -0.25491288
0001d0 18 3f 90 3d c0 fe b7 bb 3a 04 8f be 48 42 7e be
       0.07043284 -0.0056150854 -0.27932912 -0.24829972
0001e0 33 4d b8 3d 82 54 45 3d 72 8e f6 bd 6a 7c 0c be
       0.089990996 0.048176296 -0.12038888 -0.13719335
0001f0 1c 14 a2 be 2b d4 96 be 37 63 29 3c 68 ee 8d be
       -0.31655967 -0.29458746 0.010338596 -0.27720952
000200 29 3d 78 bc f4 cc 04 3e 3d f1 bf 3d c4 d0 a0 3d
       -0.0151513005 0.12968808 0.093721844 0.07852319
000210 1c 94 0f 3d 6f 9d 48 bd 96 2f 99 3d 53 b4 93 3d
       0.035053357 -0.048978265 0.074797794 0.072121285
000220 c5 ab 2d 3d e9 f5 79 bd a6 ba 82 3d 37 84 d6 3d
       0.04240014 -0.061025534 0.063832566 0.10474437
000230 1b f3 4c 3d f0 6e 30 bd 17 1c 8c 3c c7 54 42 3d
       0.05003653 -0.04307455 0.017103238 0.04744413
000240 59 64 65 3c 3f e8 bf bd 9f fb 67 3d ca d3 50 bb
       0.0140009755 -0.09370469 0.05663645 -0.0031864517
000250 58 c9 b3 3d 99 5c 95 bb 09 ae 52 bd ff 62 b9 bd
       0.08778638 -0.0045581576 -0.051435504 -0.09052085
000260 35 b8 fb 3d 01 e8 b7 3d e9 49 42 bd 8b 94 bd 3b
       0.12290994 0.08979798 -0.047433767 0.00578553
000270 6a 11 b8 3c 2d 9e 9e bd 03 cb 2a 3c 1f cd e9 bd
       0.022469241 -0.077450134 0.010424378 -0.11416077
000280 88 20 ac 3d 4d 30 62 3d a2 a6 90 3d 8d 29 22 bc
       0.08404642 0.055221844 0.07063033 -0.009897602
000290 ac 8d 82 bd 49 69 04 bd a5 18 85 3d 11 56 61 3d
       -0.06374678 -0.03232697 0.06498841 0.05501372
0002a0 2d 1d dc bd 4d 21 7d 3d 7d d9 3d bb 66 5b 01 bc
       -0.10747752 0.061799336 -0.0028968744 -0.007895326
0002b0 ba 91 9c bd ea 00 95 bd 24 e6 9e 3c e1 1b 00 3e
       -0.07644983 -0.07275565 0.019396849 0.12510635
0002c0 94 90 13 3e 5b fe d0 3d de 6c 57 3d 1a 36 ce 3d
       0.14410621 0.102047645 0.05259406 0.10068913
0002d0 da cc af 3d cd e6 01 be 27 9c bb bd 52 3e e5 3d
       0.08583994 -0.126857 -0.09160643 0.11193527
0002e0 9d f3 81 3d 00 dd 0d bd fb e6 e8 3c e8 27 1f 3d
       0.06345294 -0.03463459 0.028430453 0.038856417
0002f0 49 7d b5 3d 62 8c 3d bc 0c f9 11 3d 49 5a a6 3d
       0.08861787 -0.011569114 0.0356379 0.08122689
000300 26 3e 40 be 6d f7 35 be d1 ff 30 be 85 75 d2 bd
       -0.18773708 -0.17770167 -0.17285086 -0.10276321
000310 c2 42 48 be 64 49 e9 bd 01 59 33 be 1a cc 62 be
       -0.19556716 -0.11390951 -0.17514421 -0.22148171
000320 cd 3f 3b be cf fa d1 bd fe 11 17 be 6b 21 a2 be
       -0.18286057 -0.10252916 -0.14752957 -0.3166612
000330 60 c8 39 3c 25 60 33 be 52 7d 96 3c c2 e1 06 be
       0.011339277 -0.17517145 0.018370304 -0.13172057
000340 ef 23 1b be bc 94 04 be 87 e3 62 be c0 91 c6 bd
       -0.15150426 -0.12947363 -0.22157107 -0.09695768
000350 5d 06 0c be f9 13 00 be 19 07 9a bc 0c 36 8d bd
       -0.13674302 -0.12507619 -0.018802213 -0.06895074
000360 b5 45 3e be e9 30 88 bd 29 d2 cc bd bd a2 92 bd
       -0.18581279 -0.06649954 -0.10001022 -0.07159946
000370 97 66 9b be 23 1a 08 be 1d 16 ed bd 0a 28 22 be
       -0.30351707 -0.1329122 -0.115764834 -0.15835586
000380 da 6a 0f be f2 5e c9 bd 43 f7 fe bc ef ef 4a be
       -0.14005604 -0.098325625 -0.031123763 -0.1981809
000390 14 dd d3 bd cc 29 37 be 3b 3f 2f be 16 88 e0 bd
       -0.10344902 -0.17887038 -0.17113964 -0.10963456
0003a0 ca bf a2 bd ef 4e 0e be 99 24 8a be c5 7c 00 be
       -0.07946737 -0.13897298 -0.26981047 -0.12547596
0003b0 1e cf b6 bd be 24 5a be 07 18 93 be b3 ca fe bc
       -0.08926223 -0.21303079 -0.2872927 -0.031102514
0003c0 8e 71 70 bd eb 9b 6b be 4f 63 2b be 92 a3 c4 bd
       -0.058702044 -0.23008697 -0.16737102 -0.09601511
0003d0 d6 55 85 bd fb 35 2f be 38 d5 bd bd 98 c7 de bd
       -0.065105125 -0.17110436 -0.09269184 -0.10877913
0003e0 89 ee 89 bd ed 13 3e bd 57 11 34 be 51 12 3d be
       -0.0673495 -0.04640572 -0.1758474 -0.18464018
0003f0 7f 4f f3 bd ce 14 26 be b5 0e 26 be f9 92 77 bd
       -0.11880397 -0.16218874 -0.16216548 -0.0604429
